params/brain3d-large-param/flair/conv2-kernels.npy (npy, 110672 bytes, 1 tensors)

array f4 [432, 64]
000000 3d dd 7d bd 60 56 59 3d a2 90 80 bd 3d c5 7c 3d
       -0.061978567 0.05306089 -0.062775865 0.06171154
000010 49 72 59 bc 40 7e 52 bd 59 00 9a bc 0b 75 5d bd
       -0.013271877 -0.051389933 -0.018798994 -0.0540667
000020 a5 30 4c bd 92 e7 94 bc fc 7b 7e 3d da 92 df 3c
       -0.04985108 -0.018176828 0.06212996 0.027291704
000030 e0 82 b8 bc 1e 50 7b 3d db cc 73 bd 57 07 25 3d
       -0.022523344 0.061355703 -0.059521537 0.040290203
000040 d0 05 85 bd 2f 23 50 3d 66 5a 81 bd f1 14 7c 3d
       -0.06495249 0.050814804 -0.0631607 0.06154341
000050 7f 27 aa bc 06 4f 4c bd e8 24 b4 bc a7 4c 41 bd
       -0.020770786 -0.04988005 -0.021990255 -0.047192242
000060 03 c9 25 bd de 38 bb bc a1 c9 78 3d a5 c8 e5 3c
       -0.040474903 -0.022854265 0.060739163 0.028049776
000070 80 fb af bc 60 45 76 3d 42 4d 6e bd b5 8d 27 3d
       -0.02148223 0.060124755 -0.058179148 0.040906627
000080 ce 2b 86 bd b6 41 53 3d 14 d0 80 bd d5 9d 7a 3d
       -0.06551324 0.05157634 -0.06289688 0.061185677
000090 aa bd 81 bc 3e a5 51 bd 3a 86 a5 bc 70 73 4e bd
       -0.01583751 -0.051182978 -0.020205606 -0.05040306
0000a0 08 97 3a bd d6 2b a0 bc 59 37 7c 3d 5d 6a da 3c
       -0.04555419 -0.019552153 0.06157622 0.026662046
0000b0 6d 8f 9a bc a1 57 78 3d 48 40 6c bd a3 c3 2e 3d
       -0.018867219 0.060630444 -0.05767849 0.042667042
0000c0 92 4d 83 bd a4 2f 58 3d 5c e2 80 bd 6a 0c 79 3d
       -0.0641128 0.05277981 -0.062931746 0.060802855
0000d0 52 03 1d bc bc 2c 4b bd e2 0b bb bc 05 0a 54 bd
       -0.009583311 -0.04960321 -0.022832815 -0.051767368
0000e0 7e 51 53 bd 7c 83 a4 bc 5e 33 7d 3d 87 5a dd 3c
       -0.05159139 -0.020082228 0.061816566 0.027020706
0000f0 7d ba 72 bc 6d b7 76 3d 74 bb 63 bd 14 16 30 3d
       -0.01481497 0.060233522 -0.05559869 0.042989805
000100 97 7a e5 3b cf 85 b1 bc 00 ae dd 3a 60 d6 89 bc
       0.0070031392 -0.02167025 0.0016912818 -0.016825855
000110 24 1a db bc 0e c9 c1 bd 89 60 ba 3d b2 0e 44 bc
       -0.026745863 -0.09462176 0.09100444 -0.011966394
000120 91 48 ff bc ba a4 db 3d 53 98 3b bc 0c 14 56 bd
       -0.031162532 0.107247785 -0.011449891 -0.052265212
000130 2c f6 8b bd a1 b6 e8 bb 19 f1 49 3b a3 2e ce 3c
       -0.06834063 -0.007101849 0.0030813871 0.025168722
000140 a9 ec aa 3b 04 13 9e bc 4c 39 b3 3b d6 6c 9f bc
       0.0052162004 -0.019296177 0.005469477 -0.019461077
000150 27 62 28 bd 5f c3 b9 bd 94 e9 b1 3d 18 a6 00 bb
       -0.04110923 -0.09070467 0.086871296 -0.001963025
000160 14 2f 23 bc 40 ea ca 3d 83 a0 48 bc 26 b5 3e bd
       -0.009959955 0.09907961 -0.0122453 -0.046559475
000170 0d d2 94 bd f6 eb 23 bc 33 31 21 3c e9 82 b0 3c
       -0.072666265 -0.010004988 0.00983839 0.021546798
000180 a2 94 28 3b d2 59 88 bc f0 75 7c 3b 5c 89 90 bc
       0.0025723358 -0.016644392 0.0038522445 -0.017643623
000190 d4 bb 0c bd 50 64 bb bd fa 9e b7 3d 97 db 7e bb
       -0.034358814 -0.091499925 0.08965869 -0.003888821
0001a0 8d 3e c7 bc fa ff d1 3d 12 e4 48 bc 1e fe 4a bd
       -0.024321819 0.10253902 -0.012261407 -0.04955875
0001b0 8b ac 86 bd e2 95 09 bc 8d 94 23 3c 87 48 99 3c
       -0.06575879 -0.008397551 0.009984148 0.018711342
0001c0 e3 40 e6 ba 13 50 a8 bc 1a d2 12 3b 49 0a 67 bc
       -0.0017566945 -0.020545995 0.0022403062 -0.014101573
0001d0 76 ca b4 bc 9a 20 b1 bd 36 cb bd 3d 22 1a 06 3a
       -0.022069197 -0.086487964 0.09267275 0.00051155884
0001e0 e8 c7 22 bd 0c 1c cc 3d fe 90 3d bc b8 1c 49 bd
       -0.039741427 0.09966287 -0.011570213 -0.049099654
0001f0 19 1f 53 bd a2 f7 04 bc 1e a7 3e 3c 4b ee 85 3c
       -0.05154333 -0.008115681 0.0116365235 0.016348979
000200 b9 29 c0 bc bc a6 48 bc 68 99 37 bd c0 bc db bc
       -0.023457395 -0.012246784 -0.044824034 -0.026823401
000210 40 81 a4 3d 60 54 9a 3b b1 f2 d0 3c 87 84 7f bd
       0.08032465 0.0047097653 0.02550635 -0.062382247
000220 04 f8 45 bd 95 a2 99 3d 59 f6 23 bd 20 cd 6c 3d
       -0.04833223 0.07501713 -0.040029857 0.05781281
000230 29 f6 c2 3d a5 4c d3 bc b6 d2 32 bd a2 a4 44 3c
       0.095196076 -0.025793383 -0.04365798 0.012002142
000240 9e c2 af bc 88 9e e0 bc c8 97 dc bc b5 b0 09 bd
       -0.021455105 -0.027419344 -0.026927844 -0.033615787
000250 8b 80 ce 3d 7b b5 18 3a 04 55 be 3c b7 5f ed bc
       0.100831114 0.00058253825 0.023233898 -0.028976304
000260 17 2e 09 bd 99 75 d0 3d 82 b5 43 bd 6d ce 25 3d
       -0.03349122 0.1017868 -0.04778052 0.040480066
000270 57 ea 9d 3d 02 3f 12 bd c5 03 9e bc 6f 46 03 3d
       0.077107124 -0.03570462 -0.019288907 0.032049593
000280 f7 6e be bc f9 6c ef bc 68 b4 f4 bc 6d 5c 14 bd
       -0.023246272 -0.029226767 -0.02987118 -0.036220957
000290 ad db de 3d 2c f8 d0 3b 6f 6c bf 3c e1 47 7a bd
       0.108817436 0.0063772406 0.023367135 -0.061103705
0002a0 93 74 f1 bc 7f cc ab 3d 51 03 3e bd c1 01 37 3d
       -0.029474532 0.08388614 -0.04638988 0.044679407
0002b0 7b 2b cf 3d f0 d1 0c bd 83 ff dc bc c4 e5 a1 3c
       0.10115715 -0.0343799 -0.026977306 0.019762881
0002c0 c4 b3 11 bc c7 19 a3 bc 54 2d d3 bc 52 61 2a bd
       -0.008892957 -0.019909753 -0.02577845 -0.041596718
0002d0 b5 95 d3 3d fb a4 58 3c 78 22 5e 3c d8 5d 6a bd
       0.10331289 0.013222928 0.013558023 -0.057218403
0002e0 d8 2e 20 bc 96 bf 5f 3d 04 95 35 bd 51 ce 65 3d
       -0.009776793 0.05462607 -0.044331565 0.05610496
0002f0 be c6 b6 3d 02 65 13 bd b8 0e c3 bc 59 f6 a9 3c
       0.08924626 -0.035985 -0.02381073 0.02074735
000300 53 6e 1d 3d 79 af 63 bc fa 10 23 3d 00 4d eb bb
       0.03843529 -0.013896816 0.039811112 -0.00718081
000310 38 95 d1 3d c0 fb f3 bc 58 5b 33 bd b4 27 ce bc
       0.10233539 -0.02978313 -0.043788284 -0.025165416
000320 3f 3f b1 3c 54 c6 2e bd 2e 65 b6 3b ef 2c 9f bd
       0.021636603 -0.04266961 0.005566261 -0.07772242
000330 db 60 ec bc e0 9d a8 bb 49 19 a0 3c 56 ad 97 3d
       -0.028854778 -0.0051457733 0.019543307 0.07406108
000340 c7 52 23 3d 82 d3 fe ba 67 83 3f 3d 61 4b 0a bd
       0.039873865 -0.0019441696 0.046756174 -0.033763293
000350 0a 47 e8 3d 71 b2 d8 bc 7a 54 df bb 4a 5e 02 bd
       0.113416746 -0.026452275 -0.0068154903 -0.031828202
000360 32 b6 2a 3d c4 70 e7 bb 90 cf c6 3b e8 db c0 bd
       0.04167766 -0.0070630033 0.006067224 -0.09416944
000370 21 34 ec bc 0c 09 64 bc 43 a8 d7 3c ac 81 d3 3d
       -0.02883345 -0.013918173 0.02632535 0.10327467
000380 d9 98 32 3d 44 56 90 3b d6 9f 68 3d 2c 3f e6 bc
       0.043602798 0.004404815 0.056793056 -0.028106295
000390 74 18 e6 3d 81 f1 b8 bc cc 3d 40 3a 30 72 7e bb
       0.11235133 -0.022576096 0.0007333427 -0.0038825385
0003a0 d5 1e e5 3c ac eb ba bc c3 5c 24 bc 4c 5b aa bd
       0.027968803 -0.022817455 -0.010031882 -0.08318195
0003b0 31 2b 2a bc c4 64 83 bc 10 f6 04 3d b9 73 94 3d
       -0.010386274 -0.01603926 0.032461226 0.07248635
0003c0 63 9c 17 3d a1 5c 4f ba 29 af 54 3d 0d 99 36 bc
       0.037014376 -0.0007910226 0.05192486 -0.011144889
0003d0 6a 40 f4 3d 6c b7 93 bc 0f 29 df bc 22 65 b3 3c
       0.119263485 -0.018031798 -0.027241258 0.02189881
0003e0 aa 06 a2 3b c8 80 63 bc 3c 75 8e bc cb 9c bc bd
       0.004944642 -0.013885684 -0.017389886 -0.092095934
0003f0 da bd 13 3d dc 39 8c bc a9 0e 2b 3d 57 8e 9d 3d
       0.03606973 -0.017117433 0.041762028 0.07693165
