params/brain3d-large-param/flair/conv3-kernels.npy (npy, 884816 bytes, 1 tensors)

array f4 [1728, 128]
00000000: 063c 11ba 136c 9fbc 88bc 73bb 0877 bbbc
00000010: 274c c4bc 957b af3a 09d5 d0bc d4ad 293c
00000020: 72df d7bc cee8 c0bc d8e6 833d db66 bbbc
00000030: acd9 cebc 204c d2bc 75f6 b3bc 490c d2bc
00000040: 59d9 d8bc d3c7 c8bc 0ccf 103b 649f 1a3d
00000050: f107 c33b a775 a53d d718 14ba 61ac 603b
00000060: 4cfc 13ba 0cf7 12ba a9de 74bc 5f7e 463c
00000070: e4d8 62bc 78df 823c e457 8d3c cef3 c6ba
00000080: 1f97 8fbc c9b7 e3bb 397a 75bc 86bd 12ba
00000090: d1ea d4bc 7fb5 423c 058b f4b9 b12b e7bb
000000a0: d964 a53c 676e cdbc 9673 30bc 7a5d c3bc
000000b0: ae94 4eba ea30 14ba ccdd f3ba ed23 57bc
000000c0: c18e 273d a336 0eba 3b2e be3b a3b8 b4bc
000000d0: b5ca dabc fd5f 66bc 1a1c 05ba f76d d5bc
000000e0: 9b86 98b9 c429 d4bc 94c6 ee3c f4c8 c2bb
000000f0: 76f7 09ba 5a89 ccbc 6d71 cdbc 87c8 a0bb
00000100: aa3d e93b 6771 9ebc b778 293d c54f aa3b
00000110: 27d5 e23c 4113 c4bc cae3 13ba 9da2 d1bc
00000120: 742e cabc 3be8 e33b 6e51 c53b e7b9 33bc
00000130: 93b2 d9bc 7d4a 91bc e47c 2e3c a96a 14ba
00000140: 329c 92bc b93d 0fba 6d47 b6bc 4233 d0bc
00000150: fc62 dbbb 5b43 c4bc aa09 c1bc 4c0d dbbc
00000160: 30a2 d5bc 4101 2bbc 6b90 04ba 6bcd d5bc
00000170: 6231 0bbc 9a8c 13ba ac61 d3bc baa1 d2bc
00000180: 44a9 05ba d812 853c 5308 0abb f8a8 d4bb
00000190: 88ad 983c ccd4 a4bc 0694 7f3c 9b3a d5bc
000001a0: 5190 d1bc 17d3 613c 845a 623c 5d37 ba3b
000001b0: ea97 cebc 2d26 ee3c 261a d2bc f12d 383c
000001c0: 062e d6bc 14f3 a6bc e3ad d8bc c991 debc
000001d0: 922d 723a 60b6 d3bc 0000 0000 0000 0000
000001e0: 0000 0000 0000 0000 0000 0000 0000 0000
000001f0: 0000 0000 0000 0000 0000 0000 0000 0000
00000200: 6071 7c3b 111d d23c 50ad 723a 9ddb c83c
00000210: 73dc e4ba 0528 b2bb c09e 00bd 5c03 0c3c
00000220: dbf4 04bd ab29 dbbc 9344 873c b22c 75bc
00000230: d84e 4abc d4ff 79bc 3d61 02bd 9be1 36bc
00000240: bdea f1bc 183a 04bc 23a0 17bc 573a aebc
00000250: a8b5 c7bc 9ff1 83bc c3ad 25bc 4f2f 93bb
00000260: d58d 25bc 9069 24bc 1410 d6bc a0a1 863d
00000270: 3b16 bd3c fae1 aabc 35ee 803c 71d2 dc3c
00000280: 1589 cabb 5c09 c53c 9e2c 43bb 3729 24bc
00000290: 191b e5ba 7003 79bb 079a 483c 5b74 333c
000002a0: d2db 553c 6950 b7bc 106f 473c 8192 a8bc
000002b0: e74d aabb b1c8 25bc 3da4 773c 3ccc 7ebb
000002c0: 9968 8cba bf18 1fbc d51e 703d 327b 0a3c
000002d0: e2a6 f5bc fa78 02bd 15f7 5b3a 9f73 03bd
000002e0: 9681 c7ba 4ff1 d0bc 02b4 aabc 1f6e 8a3c
000002f0: 8258 1abc e7f2 fbbc 9d7c ccbb 9021 05bd
00000300: 7786 443c b2b8 6ebc 6ae8 e2bb 7753 d0bb
00000310: 2b82 263d 0f09 b43a 6a72 25bc 5d1d 01bd
00000320: 7091 6e3c 884c efbb 70a8 a53c 9e50 fc3c
00000330: 33e1 193c 6d26 efbc 6bc5 28bb 4b09 26bc
00000340: 4c98 b4bc 113f 20bc d4c0 8f3b e37e a8bb
00000350: 6a08 a23d f3c1 f1bc 08e0 e23c 3b61 9dbc
00000360: 31e2 903a 349d 02bc 590b 073c 6aae 03bd
00000370: eb5f 00bd e010 25bc e652 c6bc ccd0 f3bc
00000380: 7487 15bc 9e79 b13b 2f04 183d 21c4 00bd
00000390: 57ea 9a3c 8e86 71bc 3bc8 973d 1f66 c3bc
000003a0: 1912 01bd d891 013d bc01 ac3c 9b46 64bb
000003b0: 867b febc 8a08 563d 86ef b6bc 258f 0fbc
000003c0: 7c83 75bc fcf9 e93c 0174 05bd b914 09bd
000003d0: 41a7 b13b e164 02bd 0000 0000 0000 0000
000003e0: 0000 0000 0000 0000 0000 0000 0000 0000
000003f0: 0000 0000 0000 0000 0000 0000 0000 0000
-0.0005540255 -0.019460713 -0.003719123 -0.022883907 -0.023962094 0.0013388271 -0.025492208 0.010356385
-0.026351664 -0.02354851 0.06440514 -0.022876194 -0.025250278 -0.025671065 -0.021968106 -0.025640624
-0.026470827 -0.024509346 0.0022096066 0.037749663 0.0059518744 0.08079081 -0.00056494534 0.0034282433
-0.00056452 -0.0005606271 -0.014945664 0.01211509 -0.013845656 0.015975699 0.017253824 -0.0015178861
-0.017528115 -0.006949399 -0.014982753 -0.0005597699 -0.025990875 0.011884092 -0.00046642884 -0.007054769
0.02018969 -0.025077058 -0.010769745 -0.023848284 -0.00078804314 -0.0005653041 -0.0018605529 -0.013131124
0.040907625 -0.00054250116 0.005803851 -0.022060698 -0.026707986 -0.014060971 -0.0005077735 -0.026053412
-0.00029091988 -0.025898822 0.029147424 -0.0059443656 -0.000526301 -0.024967838 -0.0250785 -0.004906717
0.0071179466 -0.019341184 0.04137489 0.0051974976 0.02768953 -0.023934962 -0.0005641548 -0.025590235
-0.024680354 0.0069551743 0.00602167 -0.010969616 -0.026574409 -0.017735714 0.010649893 -0.00056616456
-0.017896745 -0.00054642145 -0.022250855 -0.025415067 -0.0066951495 -0.023957899 -0.023564178 -0.026739739
-0.026078314 -0.010437311 -0.00050569203 -0.026098927 -0.0084956605 -0.0005628556 -0.02580341 -0.025711883
-0.000509877 0.016244337 -0.002106209 -0.006489869 0.018637434 -0.020121 0.015599256 -0.026028922
-0.02558151 0.013783238 0.013815526 0.0056828693 -0.025218923 0.029070938 -0.025647234 0.011241422
-0.026144993 -0.02037958 -0.026450103 -0.027169125 0.0009238358 -0.0258438 0.0 0.0
0.0 0.0 0.0 0.0 0.0 0.0 0.0 0.0
0.0038519725 0.025648626 0.0009257393 0.024518782 -0.0017460719 -0.0054368996 -0.031401396 0.008545723
-0.032460075 -0.026753267 0.01651219 -0.0149642695 -0.012347899 -0.015258748 -0.031831015 -0.011162187
-0.029530877 -0.008070491 -0.009254488 -0.021268053 -0.024378613 -0.016106425 -0.010112229 -0.0044917236
-0.010104616 -0.010034934 -0.026130714 0.06573796 0.02308189 -0.020859707 0.015738586 0.026955815
-0.006180892 0.024052314 -0.0029781233 -0.010019592 -0.0017479389 -0.0037996434 0.012243754 0.010953034
0.0130528975 -0.02237721 0.012172475 -0.020577671 -0.005197275 -0.010118649 0.015114841 -0.0038879057
-0.0010712325 -0.00971049 0.058623154 0.008452224 -0.029986802 -0.031853653 0.0008391005 -0.032092687
-0.0015221115 -0.02550569 -0.020837788 0.016898213 -0.009420516 -0.030755473 -0.006240441 -0.03250271
0.01199495 -0.014570402 -0.0069246786 -0.006357606 0.04065148 0.001373561 -0.010098079 -0.031522144
0.014561042 -0.0073028244 0.020221919 0.03080016 0.009392071 -0.029193128 -0.0025752436 -0.010134052
-0.022045277 -0.009780661 0.0043870006 -0.005142079 0.07911761 -0.029511428 0.027694717 -0.019211402
0.0011053738 -0.00797205 0.008242452 -0.032148756 -0.031341475 -0.010074824 -0.02420945 -0.029762648
-0.009126533 0.005416109 0.037113365 -0.031437043 0.01891057 -0.014741553 0.07411238 -0.023852406
-0.0315114 0.031633228 0.02099692 -0.0034832123 -0.03106476 0.052254237 -0.02233101 -0.008762156
-0.014984962 0.028561585 -0.032581333 -0.03346703 0.0054215495 -0.031834487 0.0 0.0
0.0 0.0 0.0 0.0 0.0 0.0 0.0 0.0
