params/brain3d-large-param/flair/conv1-kernels.npy (npy, 5264 bytes, 1 tensors)

array f4 [81, 16]
0	0xbde9f2bc	-0.11423251
1	0x3dd62010	0.10455334
2	0xbdeb23ac	-0.11481413
3	0xbde68244	-0.11255315
4	0x3ddc38b6	0.10753004
5	0xbde8c087	-0.11364847
6	0xbde73a68	-0.11290437
7	0x3dd902ce	0.10596238
8	0xbdea8567	-0.11451226
9	0xbde974d4	-0.11399236
10	0x3ddb2884	0.10701087
11	0xbde83e1a	-0.1133997
12	0xbde5a89e	-0.11213802
13	0x3dd8080c	0.1054841
14	0xbde6e1db	-0.11273547
15	0xbde62005	-0.11236576
16	0x3b9d496c	0.0048000123
17	0xbe0fbe13	-0.14037351
18	0xbe0db564	-0.13838726
19	0x3c8083b8	0.015687808
20	0xbe1c1984	-0.15244108
21	0xbdf8efd3	-0.12155118
22	0x3c9c899b	0.019108584
23	0xbe1ef25e	-0.15522143
24	0xbdfacea1	-0.122464426
25	0x3991236f	0.00027682955
26	0xbe08f4a3	-0.13374572
27	0xbe01fe92	-0.12694767
28	0x3c4b0a9d	0.012392667
29	0xbe18f1ce	-0.14935991
30	0xbe068976	-0.13138375
31	0x3c503d28	0.012709893
32	0xbbf10b28	-0.0073560663
33	0x3cacb69c	0.021083169
34	0x3cbe6ece	0.023246195
35	0x3e389252	0.18024567
36	0xbe4e7a25	-0.20163782
37	0x3e188b94	0.14896995
38	0x3e1ad881	0.15121652
39	0xbe265163	-0.16241984
40	0x3dffed98	0.12496489
41	0x3db6516d	0.089022495
42	0xbdb216dd	-0.08695767
43	0x3daf8b9c	0.0857155
44	0x3e289ba8	0.16465628
45	0xbe382b62	-0.17985299
46	0x3e227b9a	0.15867463
47	0x3dbb1cfe	0.09136389
48	0x3d0ac49b	0.033878904
49	0xbd3fb0b3	-0.046799373
50	0x3c8e0248	0.017335072
51	0x3d3b1050	0.045669854
52	0xbd683838	-0.05669424
53	0x3ca26290	0.019822389
54	0xbd443440	-0.047901392
55	0x3d66dfb7	0.056365695
56	0xbd52a350	-0.05142528
57	0xbe344e31	-0.17607953
58	0x3e53278f	0.20620559
59	0xbe28da77	-0.16489588
60	0x3d698c99	0.05701885
61	0xbd9e1f97	-0.07720869
62	0x3d1c72dc	0.038195476
63	0xbd9423e7	-0.0723341
64	0xbbd6bfaf	-0.006553612
65	0xbd518710	-0.051154196
66	0x3d45876a	0.048224844
67	0xbe1ed66e	-0.15511486
68	0x3de7e17e	0.11322306
69	0xbdd76f2c	-0.10519251
70	0xbe287c36	-0.16453633
71	0x3de222a0	0.110417604
72	0xbdc6e62e	-0.09711872
73	0xbe3ab738	-0.18233955
74	0x3e1db4cb	0.15400998
75	0xbe0b9d03	-0.13634114
76	0x3cc333e9	0.023828464
77	0xbdb3dabe	-0.08781956
78	0x3d6b1ce7	0.05740061
79	0x3ce28138	0.027649507
80	0xbd831259	-0.06399984
81	0xbe235a58	-0.15952432
82	0x3e1e6c55	0.15471013
83	0xbe0c1a8a	-0.13681999
84	0xbdadab64	-0.08479956
85	0x3dca6102	0.09881784
86	0xbe015408	-0.12629712
87	0xbdc7cf9c	-0.09756395
88	0x3dfc9ccc	0.12334594
89	0xbe053510	-0.13008523
90	0xbd9f350d	-0.077737905
91	0x3dbec1b1	0.093142875
92	0xbe148779	-0.14504804
93	0xbd9232c0	-0.07138586
94	0x3d957f49	0.07299668
95	0xbdebcc9e	-0.11513637
96	0xbe1d05d9	-0.15334262
97	0x3dc70d0d	0.09719286
98	0xbd898e39	-0.0671658
99	0xbde8b3ec	-0.113624424
100	0x3cd0eb90	0.02550295
101	0xbda56dd6	-0.0807759
102	0xbd986576	-0.07441227
103	0xbb630f00	-0.0034646392
104	0xbd888850	-0.066666245
105	0xbc934470	-0.01797697
106	0xbda111bc	-0.07864711
107	0x3b0a0fc0	0.0021066517
108	0x3caa217d	0.020767922
109	0xbdf43a6f	-0.11925208
110	0x3d73c00e	0.05950933
111	0xbcbbface	-0.022946741
112	0xbe06e25e	-0.1317229
113	0x3dd92a02	0.106037155
114	0xbddd2182	-0.10797407
115	0x3e216f87	0.157652
116	0xbe580da8	-0.2109896
117	0x3e1e45a5	0.15456255
118	0x3e010700	0.12600327
119	0xbe4689af	-0.1938846
120	0x3e233afa	0.15940467
121	0x3dbcfbd0	0.09227717
122	0xbde2be90	-0.11071503
123	0x3dd75dac	0.10515913
124	0xbbd7a5b0	-0.006581031
125	0xbd8020ea	-0.06256278
126	0x3c9c5418	0.019083068
127	0xbe0bb0e1	-0.13641693
128	0x3e001610	0.12508416
129	0xbdc2bd06	-0.095087096
130	0x3da4045c	0.08008644
131	0x3d578b82	0.05262328
132	0xbd024c68	-0.031811148
133	0xbb84f990	-0.0040580705
134	0x3d41823c	0.04724334
135	0xbc4f31f0	-0.012646183
136	0xbd7b30cc	-0.061325833
137	0xbe05cd96	-0.13066706
138	0x3e20e976	0.15714058
139	0xbe5364f8	-0.20643985
140	0x3e9c0c39	0.30478075
141	0xbea0ac48	-0.3138144
142	0x3e6bf3ab	0.2304217
143	0x3e173659	0.14766826
144	0x3e591a9c	0.21201557
145	0xbe6ad5b0	-0.22933078
146	0x3e181482	0.14851573
147	0xbdbedb67	-0.093191914
148	0x3e143597	0.14473568
149	0xbe0a2dc5	-0.13494022
150	0x3d9a1dec	0.075252384
151	0xbda144d4	-0.07874456
152	0x3d91bc8c	0.071160406
153	0x3e0c5304	0.13703543
154	0xbdc35ee8	-0.09539586
155	0x3df48822	0.11940028
156	0x3c9809b0	0.018559307
157	0x3c8ee7e0	0.017444551
158	0x3c01dfb8	0.007926874
159	0x3e342ac8	0.17594445
160	0x3d86315d	0.06552384
161	0xbd1b52b6	-0.037920676
162	0x3d8a8ae4	0.067647725
163	0x3c023698	0.0079475865
164	0x3dcab970	0.09898651
165	0x3e52f65a	0.20601788
166	0xbdb35239	-0.08755917
167	0x3e110e3f	0.1416559
168	0x3cfd7830	0.030941099
169	0x3c665ac8	0.01405973
170	0xbd5266cc	-0.051367566
171	0xbcae4ff0	-0.021278352
172	0x3c870069	0.016479688
173	0x3dd1d3e4	0.10245493
174	0x3e5df5d4	0.21675807
175	0xbd78ee80	-0.060774326
176	0xbdad91ee	-0.084750995
177	0x3dd3e7f4	0.10346976
178	0xbde46b7d	-0.11153314
179	0x3d805f9c	0.06268236
180	0x3821f800	3.861636e-05
181	0xbd5260f6	-0.051362
182	0xbd7b0126	-0.061280392
183	0x3da44fee	0.08023058
184	0xbe137486	-0.14399919
185	0x3dcdb9fa	0.10045238
186	0xbe1de16c	-0.15418023
187	0x3ce688c8	0.028141394
188	0x3d633304	0.055468574
189	0xbda3fbcc	-0.08007011
190	0x3d29c58a	0.041448154
191	0x3cb21760	0.021739662
192	0x3d880131	0.06640852
193	0xbcfbb2ab	-0.030724844
194	0x3d1faf30	0.03898543
195	0xbd28fa4f	-0.041254338
196	0x3d156871	0.036476556
197	0x3d79684e	0.06089049
198	0xbe119b8c	-0.14219493
199	0x3e6df381	0.2323742
200	0x3d1a33b0	0.03764695
201	0xbb3d8080	-0.0028915703
202	0x3e119b05	0.14219292
203	0x3e139fd6	0.14416441
204	0x3c6cf330	0.014462277
205	0x3d225e50	0.039640725
206	0xbbada6e0	-0.005299434
207	0xbd6e7da0	-0.058225274
208	0xbdeac28a	-0.11462887
209	0x3daba3c2	0.08380844
210	0xbd5a6ec6	-0.053328298
211	0x3def8bdb	0.11696597
212	0x3c6388ec	0.013887625
213	0x3e0b66e4	0.13613468
214	0x3d064cc2	0.032788046
215	0x3e102ac7	0.14078818
216	0x3e05570c	0.13021487
217	0x3d0c7db8	0.034299582
218	0x3e1d4a5a	0.15360394
219	0x3e5cc79a	0.21560517
220	0x3e125d4a	0.142934
221	0xbd54e590	-0.05197674
222	0x3e42cc30	0.19023204
223	0xbcc95220	-0.024575293
224	0x3d1ff209	0.039049182
225	0xbd08b983	-0.033380043
226	0x3c671fef	0.014106735
227	0x3c6c9f99	0.014442348
228	0x3da3b596	0.07993619
229	0x3dab0dc3	0.08352234
230	0x3df402d8	0.11914605
231	0xbdb28214	-0.08716217
232	0x3e3de987	0.18546115
233	0x3d108984	0.035287395
234	0xbc34a608	-0.011025913
235	0x3ca4e677	0.020129425
236	0xbc6a8e28	-0.014316119
237	0x3e066d74	0.1312769
238	0x3d9052f0	0.07047069
239	0x3b5d3100	0.003375113
240	0xbd3c0c30	-0.04591006
241	0x3d790aec	0.06080143
242	0xbd28554c	-0.04109697
243	0x3d99f1e4	0.0751684
244	0xbdfdd377	-0.12393849
245	0x3dc8c209	0.09802634
246	0x3dd5afa6	0.10433893
247	0xbe042db6	-0.12908062
248	0x3e1775aa	0.14790979
249	0xbcd15900	-0.025555134
250	0x3c39a2b0	0.011330292
251	0x38f24400	0.00011552125
252	0x3dc15e12	0.094417706
253	0xbe20086c	-0.15628213
254	0x3beacd00	0.007165551
255	0x3d81b468	0.06333238
