params/brain3d-large-param/t1gd/conv2-kernels.npy (npy, 110672 bytes, 1 tensors)

array f4 [432, 64]
-0.011129624 -0.033420146 0.06345012 0.062092792 -0.05719808 -0.025260054 0.06355303 -0.045711666
-0.029712388 -0.014379597 0.06457199 0.061134677 -0.0013214523 0.025862128 0.060213342 0.06369733
-0.01565072 -0.041922484 0.06450068 0.0604458 -0.057260443 -0.020997204 0.06342399 -0.048531692
-0.031443305 -0.014990422 0.06441624 0.06108292 -0.00014940854 0.0252887 0.057263337 0.062743
-0.013708319 -0.04040687 0.06377872 0.061750952 -0.055690113 -0.023072345 0.06370339 -0.04846499
-0.034716852 -0.018486138 0.06424545 0.061121188 -0.0014042315 0.023891931 0.059377685 0.062903635
-0.0107091535 -0.038072888 0.06337338 0.06224012 -0.057609677 -0.024996608 0.06329815 -0.048522558
-0.041462723 -0.017869227 0.06430481 0.058135692 -0.0016385987 0.026048698 0.059559267 0.06245449
0.09036699 0.056269765 -0.016014457 -0.014941685 -0.06091677 -0.041307095 -0.009808451 -0.06662898
-0.028622488 0.1007187 0.019231973 -0.015574284 0.09152851 0.053351596 -0.023424763 0.015605923
0.089812905 0.11089721 -0.016524198 -0.013632841 -0.060994606 0.01975678 -0.011030402 -0.035527814
-0.03733522 0.13181943 0.0067845588 -0.017634196 0.06900677 0.057606943 -0.019554649 0.0021611312
0.09969853 0.101600364 -0.015672063 -0.013686152 -0.05862678 0.009211391 -0.012165239 -0.056960933
-0.049348425 0.13318217 0.012166148 -0.02052948 0.09489879 0.06294357 -0.023521533 -0.001043366
0.08386862 0.07596286 -0.015736004 -0.014405397 -0.03191181 -0.018590389 -0.0120537635 -0.043773465
-0.04835486 0.11669567 0.013047152 -0.024497133 0.100219324 0.054298818 -0.025599737 0.00081886386
-0.012985736 -0.072182454 -0.014218026 -0.006909609 0.013734102 -0.16258454 -0.016421095 -0.043902434
0.024575477 -0.07601266 -0.0020646865 -0.00013127094 0.019340226 0.0050246445 0.009767346 0.0039798296
0.0059318487 0.018320028 -0.0036443495 -0.016711034 -0.01933498 -0.13262013 -0.017372655 -0.04142616
0.043138828 0.004203555 -0.0046135187 -0.005042085 0.015508481 0.045602366 0.002751437 -0.0021251938
0.02617822 0.009628039 -0.009281658 -0.013489502 0.0023253702 -0.16820377 -0.019430202 -0.048184767
0.01803333 -0.012335022 -0.0007613261 0.010254689 0.03452838 0.045057762 0.0064358637 -0.0041803275
0.018008834 0.008000051 -0.016759915 -0.01428823 0.05197971 -0.15078703 -0.024808899 -0.00581733
0.022815246 -0.014632799 -0.010163919 0.01876439 0.038285416 0.01695228 0.0038062634 -0.0072548958
-0.0736702 -0.040102176 0.0032218173 -0.004268408 -0.099078625 0.066236734 -0.003001213 -0.055642333
0.096749485 -0.0070881248 0.0039684065 -0.013110538 -0.026889592 0.044882182 0.0031244715 0.008925944
-0.03982652 0.0093083335 0.0023983638 -0.021050483 -0.08913893 0.14942777 -0.016390275 0.020198122
0.091795124 0.042227898 -0.015393207 -0.009764388 -0.060690258 0.01840734 -0.017624902 -0.010608149
0.010435216 -0.04383158 0.009253722 -0.0068674013 -0.08385925 0.0638451 -0.007820321 -0.04538529
0.016287472 0.0259041 0.0059555857 -0.0026755854 -0.0088670375 0.0636615 -0.0071854927 0.0012733934
0.0012502299 -0.04363351 0.008811621 0.004718913 -0.010355526 -0.012024818 0.0009554787 -0.03556052
-0.015637415 0.024051778 0.025585227 0.0071890354 0.05613265 0.03356984 0.009417974 0.009529832
00000000: 0759 36bc 90e3 08bd 23f2 813d 0355 7e3d
00000010: 8948 6abd 2cee cebc 1728 823d 283c 3bbd
00000020: 6567 f3bc 6798 6bbc 523e 843d 5b68 7a3d
00000030: 9534 adba d0dc d33c 44a2 763d bf73 823d
00000040: f035 80bc e9b6 2bbd ef18 843d 0496 773d
00000050: ed89 6abd 5402 acbc 70e4 813d 2bc9 46bd
00000060: b2ca 00bd 639a 75bc a9ec 833d 1532 7a3d
00000070: 8daa 1cb9 3f2a cf3c f68c 6a3d 677f 803d
00000080: db98 60bc ad81 25bd 6b9e 823d 91ee 7c3d
00000090: 511b 64bd 3702 bdbc ec76 823d 3a83 46bd
000000a0: 4233 0ebd 3e70 97bc 1e93 833d 365a 7a3d
000000b0: 310e b8ba 03b9 c33c 0436 733d 9fd3 803d
000000c0: 7275 2fbc 51f2 1bbd e7c9 813d 7fef 7e3d
000000d0: 20f8 6bbd b0c5 ccbc 76a2 813d 97bf 46bd
000000e0: d1d4 29bd 7c62 92bc 3db2 833d b11f 6e3d
000000f0: 40c6 d6ba 1464 d53c 6bf4 733d 48d0 7f3d
00000100: 5412 b93d 207b 663d c030 83bc f8cd 74bc
00000110: dd83 79bd a131 29bd a0b3 20bc c674 88bd
00000120: b579 eabc 9b45 ce3d 5f8c 9d3c 482b 7fbc
00000130: 4d73 bb3d 3487 5a3d 4ae5 bfbc fcaf 7f3c
00000140: d4ef b73d 141e e33d c15d 87bc 485c 5fbc
00000150: 7bd5 79bd f8d8 a13c dcb8 34bc 9d85 11bd
00000160: d1ec 18bd acfb 063e 0151 de3b 9775 90bc
00000170: 6c53 8d3d 42f5 6b3d 1231 a0bc c4a1 0d3b
00000180: be2e cc3d da13 d03d b362 80bc e23b 60bc
00000190: a222 70bd 60eb 163c b650 47bc de4f 69bd
000001a0: 9321 4abd e860 083e 8654 473c 712d a8bc
000001b0: 4c5a c23d 8fe8 803d 3bb0 c0bc 8ec1 88ba
000001c0: 50c3 ab3d 6a92 9b3d cbe8 80bc 9d04 6cbc
000001d0: f5b5 02bd df4a 98bc 267d 45bc ce4b 33bd
000001e0: bf0f 46bd 24fe ee3d b9c3 553c 36ae c8bc
000001f0: ca3f cd3d 7068 5e3d 8ab6 d1bc 06a9 563a
00000200: 20c2 54bc 65d4 93bd b9f2 68bc 006a e2bb
00000210: 0005 613c 907c 26be 8885 86bc 0ad3 33bd
00000220: 8352 c93c 87ac 9bbd b14f 07bb c6a5 09b9
00000230: 656f 9e3c c6a5 a43b 3807 203c 3b69 823b
00000240: f45f c23b e213 963c 0ad6 6ebb 94e5 88bc
00000250: 6464 9ebc 92cd 07be 1951 8ebc 7aae 29bd
00000260: 57b2 303d fabd 893b 002d 97bb 1338 a5bb
00000270: 4917 7e3c 8cc9 3a3d 7451 343b d646 0bbb
00000280: b573 d63c ecbe 1d3c 1812 18bc 1203 5dbc
00000290: 3d65 183b 9c3d 2cbe 162c 9fbc 645d 45bd
000002a0: a2ba 933c d518 4abc bb93 47ba 4803 283c
000002b0: a16d 0d3d 7d8e 383d f0e3 d23b 21fb 88bb
000002c0: 4387 933c a512 033c 174c 89bc 2e19 6abc
000002d0: ade8 543d ea67 1abe 083c cbbc 4d9f bebb
000002e0: 0ae7 ba3c 68be 6fbc 9186 26bc c7b7 993c
000002f0: 2bd1 1c3d 82df 8a3c 8172 793b 7aba edbb
00000300: 67e0 96bd 2e42 24bd 2025 533b 00de 8bbb
00000310: bce9 cabd 20a7 873d 00b0 44bb 37e9 63bd
00000320: 9824 c63d 8043 e8bb 6809 823b 95cd 56bc
00000330: 9047 dcbc 61d6 373d efc3 4c3b 1f3e 123c
00000340: 2221 23bd fb81 183c de2d 1d3b 1072 acbc
00000350: 798e b6bd 9803 193e e644 86bc 8876 a53c
00000360: 15ff bb3d 29f7 2c3d ca33 7cbc d0fa 1fbc
00000370: 5996 78bd fdca 963c 1962 90bc cdcd 2dbc
00000380: 78f8 2a3c be88 33bd ec9c 173c f007 e1bb
00000390: 66be abbd 38c1 823d ce20 00bc ede5 39bd
000003a0: 4e6d 853c d634 d43c 1327 c33b e058 2fbb
000003b0: 0d47 11bc f660 823d 4874 ebbb fee7 a63a
000003c0: c1de a33a 0db9 32bd 9e5e 103c 1da1 9a3b
000003d0: 39aa 29bc be03 45bc 1779 7a3a e8a7 11bd
000003e0: 091a 80bc 3c08 c53c 1c98 d13c 0092 eb3b
000003f0: 59eb 653d 8780 093d d94d 1a3c 0323 1c3c
