params/brain3d-large-param/t1gd/conv3-kernels.npy (npy, 884816 bytes, 1 tensors)

array f4 [1728, 128]
0	0xbcb434d6	-0.02199785
1	0xbcee98b2	-0.029125545
2	0x3d149eec	0.036284372
3	0x3c9ac19c	0.018891148
4	0x3cd75a32	0.026288126
5	0x3cbabbba	0.022794593
6	0xbc9aebbc	-0.018911235
7	0x3d1531c5	0.036424417
8	0xbc154ebf	-0.009113013
9	0xba40e7a4	-0.0007358736
10	0xbc6e04c8	-0.014527507
11	0xbc7f008c	-0.015564095
12	0xbceb6554	-0.02873484
13	0xbc87f304	-0.016595371
14	0xbcb15b81	-0.021650078
15	0x3c7a7227	0.015286005
16	0xbc52a50a	-0.012856731
17	0x3cb3c0e2	0.02194256
18	0xbbf0c2f2	-0.007347458
19	0xbccb4df1	-0.024817439
20	0xbc81efa5	-0.015861342
21	0x3c7cf604	0.015439514
22	0x3d2c381a	0.04204569
23	0xbd01dfce	-0.031707577
24	0x3d615c3d	0.055019606
25	0x3c602eb8	0.013683014
26	0x3baaaf8a	0.005208914
27	0x3cc60949	0.02417435
28	0xbc561954	-0.013067562
29	0x3d24f951	0.04027683
30	0xbbaa2c34	-0.0051932577
31	0xbcc4d421	-0.024026932
32	0xbce6cdc8	-0.028174296
33	0xbcbb82ea	-0.022889573
34	0xbce7b7ba	-0.02828585
35	0x3c610d5f	0.013736098
36	0xbcf5d6e0	-0.030009687
37	0x3bf47436	0.0074601425
38	0xbce83bf9	-0.02834891
39	0xbbdfcb5e	-0.006829663
40	0xbcc07849	-0.023494856
41	0xbc8aad33	-0.016928291
42	0xbcc27db1	-0.023741575
43	0xbbf3e1d3	-0.007442692
44	0x3c475586	0.0121663865
45	0x3cef8c5f	0.029241739
46	0xbc36e397	-0.01116266
47	0xbb4fcb91	-0.0031707028
48	0x3a421612	0.00074038014
49	0x3d235d26	0.039883755
50	0x3cbac985	0.02280117
51	0xbce996f4	-0.028514363
52	0x3d0accdd	0.03388678
53	0xbcb0220c	-0.02150061
54	0x3cd06adc	0.02544158
55	0x3c94381c	0.018093161
56	0xbce655b8	-0.028117046
57	0x3cc3d39e	0.023904618
58	0x3ced1f1f	0.028945504
59	0x3c999108	0.018745914
60	0xbc3a7842	-0.011381211
61	0xbc21264b	-0.00983579
62	0xbbe73381	-0.0070557003
63	0x39b3c262	0.00034286367
64	0x3cdb3a3e	0.02676117
65	0x3bf1fc7f	0.007384836
66	0x3d3b448f	0.04571968
67	0xbc5a7129	-0.013332644
68	0xbc6f8f20	-0.014621526
69	0xbce763ef	-0.028245894
70	0x3c565cce	0.01308365
71	0xbb498553	-0.0030749633
72	0xbc0d5dd9	-0.008628332
73	0xbca651e9	-0.02030273
74	0xbcc9dbd6	-0.024640959
75	0x3b8e4e61	0.0043428396
76	0x3ccfd210	0.02536872
77	0x3ca2562d	0.019816482
78	0xbc8e97cb	-0.017406365
79	0x3c73156d	0.014836651
80	0xbc67ebc9	-0.014155337
81	0xbcc18db9	-0.023627149
82	0x3b95536b	0.0045570633
83	0xbcb20910	-0.021732837
84	0xbce7e84d	-0.028309012
85	0x3c169836	0.009191563
86	0x3cea5a9a	0.028607655
87	0x3ca2d50f	0.019876985
88	0xbcc3fcda	-0.02392428
89	0x3bdc7cf5	0.006728763
90	0xbcacdfe3	-0.021102851
91	0x3c722cb9	0.0147811705
92	0xb8ae516c	-8.3121326e-05
93	0xbcae6f27	-0.021293236
94	0xbc6fda41	-0.014639438
95	0xbce9001d	-0.028442437
96	0xbca8aaf1	-0.020589324
97	0x3cd4e444	0.025987752
98	0x3bfcf9c2	0.007720203
99	0xbcb49f8d	-0.022048736
100	0x3d195637	0.037435737
101	0xbceac531	-0.028658481
102	0xbceb4c4f	-0.02872291
103	0xbc29eaad	-0.0103708925
104	0xba642e2d	-0.00087043905
105	0x3d1a0a93	0.03760774
106	0xbc5ae08c	-0.0133592
107	0x3c20d91d	0.009817389
108	0xbcd14a0b	-0.025548002
109	0xbb96edc7	-0.004605982
110	0x3d36c349	0.044619832
111	0x3c015f69	0.007896283
112	0xbcd8c582	-0.026461367
113	0xba534325	-0.00080590165
114	0x3bd7dbe0	0.0065874904
115	0xbc82cd7e	-0.015967127
116	0xbd0b3900	-0.033989906
117	0xbc8f8db9	-0.017523633
118	0xbc1d0822	-0.009584459
119	0xbb5a9108	-0.0033350606
120	0x3cabb9ed	0.02096268
121	0xbbb4db9e	-0.0055193445
122	0x00000000	0.0
123	0x00000000	0.0
124	0x00000000	0.0
125	0x00000000	0.0
126	0x00000000	0.0
127	0x00000000	0.0
128	0xbc75dc04	-0.015006069
129	0xbd202cdb	-0.039105278
130	0x3caf2f55	0.021384874
131	0x3d058caf	0.03260487
132	0x3c8a051c	0.01684814
133	0x3ceae0f1	0.028671714
134	0xbc1aab23	-0.009440216
135	0x3d0d4ae3	0.034495246
136	0xbc7305b0	-0.014832899
137	0xbcc59875	-0.024120549
138	0x3d03c0b6	0.032166205
139	0x3cde2ec4	0.027121909
140	0xbd16ec89	-0.03684667
141	0xbd24676b	-0.04013769
142	0xbd1a0e26	-0.03761115
143	0xbc8f4bfb	-0.017492285
144	0xbd229a1c	-0.03969775
145	0xbc08a59a	-0.008340264
146	0xbd02ae17	-0.031904306
147	0xbc16504d	-0.009174419
148	0x3dac6eae	0.08419548
149	0x3d2e281a	0.042518713
150	0x3c2d869c	0.010591175
151	0xbb714ebd	-0.0036820613
152	0x3ca6344e	0.020288613
153	0xbcb12c09	-0.021627443
154	0x3c90f67a	0.017695654
155	0xbb8c383c	-0.0042791646
156	0xbc220918	-0.009889863
157	0xb97f94ab	-0.00024374078
158	0xbc749b5c	-0.014929619
159	0xbc5d79fd	-0.013517854
160	0xbc29c245	-0.010361259
161	0xbc257f9d	-0.010101226
162	0xbc2a6e57	-0.010402284
163	0xb9f58ddf	-0.00046835744
164	0xbd167fd9	-0.03674302
165	0x3d11abe2	0.03556431
166	0xbc2acf9b	-0.010425474
167	0x3d1d0f1c	0.038344488
168	0xbd2089b2	-0.039193816
169	0x3bcfa015	0.006336222
170	0x3be858fb	0.0070906854
171	0xbd1f3eaf	-0.03887814
172	0xbcc293f7	-0.023752196
173	0x3c617802	0.013761522
174	0x3c448ff4	0.011997212
175	0xbb4fa6fe	-0.0031685228
176	0x3ce1b92c	0.027554117
177	0x3d6eca4c	0.058298394
178	0x3cc15065	0.023597905
179	0xbd32f754	-0.0436929
180	0xbaeca6a1	-0.001805503
181	0x3c83c918	0.0160871
182	0xbbe56ae0	-0.007001266
183	0x3d199c75	0.037502725
184	0xbc2969f5	-0.0103402035
185	0x3b3e8f4c	0.002907711
186	0x3d2991f8	0.041398972
187	0x3d422076	0.04739424
188	0xbd3a15f7	-0.045431104
189	0xbc9eb57c	-0.019373648
190	0xbccbda44	-0.02488435
191	0xbb92f440	-0.0044846833
192	0xbcbe5e09	-0.023238199
193	0xbbcb374e	-0.006201661
194	0x3c038469	0.0080271745
195	0xbc93bac9	-0.018033402
196	0xbcdb29e3	-0.026753372
197	0xbc2a30b5	-0.010387589
198	0xbc817450	-0.015802532
199	0xbbeb0284	-0.0071719307
200	0x3d09753f	0.03355908
201	0x3b2fad47	0.0026806162
202	0xbd020091	-0.03173882
203	0x3d1991b9	0.037492488
204	0xbc8b255b	-0.016985586
205	0x3bff519b	0.0077917106
206	0xbcf328bc	-0.02968251
207	0x3bea0653	0.007141867
208	0x3aa8774d	0.0012852937
209	0xbc2905c4	-0.010316316
210	0x3d533de2	0.051572688
211	0xbcf6d650	-0.030131489
212	0xbc2a9210	-0.010410801
213	0xbc806f2f	-0.015678016
214	0x3d680b25	0.056651253
215	0x3cd10dd4	0.02551929
216	0xbd01e986	-0.031716846
217	0x3caafa18	0.020871207
218	0xbd0504cb	-0.032475274
219	0xba22150a	-0.00061829446
220	0xbb99d25f	-0.0046942676
221	0x3c06edca	0.008235404
222	0xbba7880d	-0.005112654
223	0xbc2b5fdf	-0.010459869
224	0x3d2cd1ca	0.042192258
225	0xbc10dcc5	-0.008841698
226	0x3d67061e	0.05640232
227	0xbd0e226f	-0.034700807
228	0x3d730d0e	0.05933862
229	0xbd169227	-0.036760475
230	0xbc2d107f	-0.010563015
231	0xbcda6f5f	-0.026664434
232	0xbc04d3df	-0.008107155
233	0xbc4c5083	-0.012470367
234	0xbc85e50a	-0.016344566
235	0x3c357be9	0.011076906
236	0x3d793f7f	0.06085157
237	0xbbaab447	-0.005209479
238	0xbcd1e9ff	-0.025624273
239	0x3c973616	0.018458407
240	0xbd145fc5	-0.036224145
241	0xbd06af07	-0.032881763
242	0xbd16b89d	-0.036797155
243	0xbd07102d	-0.03297441
244	0xbcd5e95d	-0.026112253
245	0xbd0dd5e7	-0.03462782
246	0xbd10d1d5	-0.03535636
247	0xbc495040	-0.0122871995
248	0x3bb3eb15	0.0054906704
249	0x3a000d17	0.0004884763
250	0x00000000	0.0
251	0x00000000	0.0
252	0x00000000	0.0
253	0x00000000	0.0
254	0x00000000	0.0
255	0x00000000	0.0
