params/brain3d-small-param/flair/conv2-kernels.npy (npy, 55376 bytes, 1 tensors)

array f4 [432, 32]
00000000: 1f43 5dbd b015 57bd e6b6 633d 7505 3c3d
00000010: fb8d 2b3d c29a 63bd 91f0 0b3d 02e4 a13c
00000020: 422c 2abd 9076 63bd 3308 323d e6b7 b03c
00000030: 42af 60bd 371d 6c3d 3ffd 6c3d f8de 58bd
00000040: a2a8 57bd d958 4abd e6b6 603d 2d4c 443d
00000050: 157c 303d dd8c 60bd 19e7 2a3d 67aa d53c
00000060: 2b74 2bbd f368 59bd 2dcc 343d 307a c83c
00000070: b274 56bd 5b9c 723d 2d8c 753d 6573 4abd
00000080: 5c28 c8bc d8d2 7fbc 40c3 9f3c 95c3 86bd
00000090: 4ede 84bd bc88 a6bc 9e5a 5f3d 754d c7bd
000000a0: 67d7 783c 94ac aebc 557a 6fbd 97c6 d4bd
000000b0: b428 c1bc a10e b93c 3f41 113d baff f6bb
000000c0: 59a3 d7bc 02b4 9cbc a313 813c 2a2a 79bd
000000d0: 1d3c 52bd 232e b0bc f2f2 c03d 8817 b8bd
000000e0: c105 813c 118e afbc 9a7f 56bd b782 c7bd
000000f0: 7155 c7bc bb0a be3c f8bb 193d 77ef 3abb
00000100: b32a 0fbd b9ca f9bc cf3a 44bd e0a4 2dbd
00000110: e041 13bd 7c61 04bd 7795 8a3d 6789 793d
00000120: 90fa d63d 731e 32bd 9acd bbbc df4f 8d3d
00000130: 22d9 48bd 1faf 6fbd ae8c 5dbd 18bc 843b
00000140: 51d0 5ebd 9af7 48bd 2d12 04bd 0518 dabc
00000150: 8eac b5bc ee1d 58bd bf45 cf3d 43e0 693d
00000160: e724 983d f32e 79bd 05f9 7f3c cae1 923d
00000170: 1c44 64bd ebc9 0ebd 739b 0fbd c20f 593b
00000180: 72be 0f3d 2f69 1ebc c00d 273a 808b 0cbb
00000190: 80cc 9ebc 808d 7f3c a51b 2e3e 08ea 963c
000001a0: 71c8 a7bd b152 0c3d 4a24 a9b9 a5b0 ba3c
000001b0: 9f2d 2a3d 305f 2cbb 9240 68bc a783 9ebc
000001c0: 0595 283d 478f bf3c ecf6 113b bddf c73c
000001d0: e098 a63c 37e3 ae3c d81c df3d 8608 3c3d
000001e0: 8613 f6bd 883b 103d 1a55 e43c 7499 283d
000001f0: 2bae 293d c00d e93b e1c8 c1ba e4a5 18bd
00000200: 33a2 80bc 36a8 98bb bd23 1e3c daa0 393d
00000210: 2c60 50bd 48c5 b83c 502b 583d 4094 46bc
00000220: d80f 5e3d a099 fc3b 72e6 ee3d a658 3cbc
00000230: 8e37 c6ba ea02 073d f763 9c3c 9720 5b3d
00000240: cafd 9cbc cce8 f1bb f665 543c 83e1 9c3d
00000250: 74cb a3bb 91f2 2a3c 7ae1 323c 5f3c ba3c
00000260: 9336 403d cad7 7b3c c318 f13d 1dbd 333c
00000270: 50da 133b 82b3 f73c 7b92 823c 6181 833d
00000280: 6633 03bc 1ef1 5dbd d417 d0bc 41f1 24bd
00000290: 1e9a 84bd c06e 8bbc d02d 00bc 60ef 553c
000002a0: 189d 58bd 103a 1bbd a883 843c b366 eb3c
000002b0: e96c 6cbc 99f0 7d3a 4535 8fbc 31bd 5abd
000002c0: bdab 8dbc 307b dbbc 3e42 da3a 24bc 6abb
000002d0: c3f9 b6bc 4bb1 17bc c87b 3fbe dd81 3a36
000002e0: 6564 b6bd 6888 cfbc 7e02 45bc de90 2c3c
000002f0: 09de 01bc 238e e43c fe62 7b3c fcaf 93bd
00000300: 48fa f03c 3b08 d4bc bfcb 36bd 903a c4bb
00000310: d86f 75bd e0e2 9d3c 64a8 98bd e0b6 96bc
00000320: 92a3 01bd 8013 8bbb b80f 2d3d 807d e3bc
00000330: 3354 133c 44af 4cbc 2d4d 08bd eb4a f9bc
00000340: 4718 19bc 0f2f 63bd d219 ab3b 50b7 093c
00000350: d6ba 87bd 57cc bebb 5cbf 4b3e 46b2 673c
00000360: f030 8dbd b88e 0bbd 902a 8b3d 114b d23c
00000370: afcc b1bc 79dd 083d 46b3 313c 64be 9abd
00000380: 31bd bcbc 7e61 493d e544 d8bc fe79 873c
00000390: 480b 52bd 5041 4fbd 000d 80ba b1bf dd3c
000003a0: 3086 96bd e058 3bbc 4057 e23c 80b8 773c
000003b0: 0052 043a cc4c b1bc 2a31 73bc e70a 16bc
000003c0: a09d d33c 6d8c 953d d871 4fbd f581 a8bd
000003d0: 6894 06be 8cba 8d3c 0695 a6bd a180 03be
000003e0: b10c 3e3d ff1f 353d 15ad 86bd 500d d1bd
000003f0: 8548 fd3c b0b8 a1bd 5328 9abd 3a48 573d
-0.05401909 -0.052510917 0.055594347 0.04590364 0.04188345 -0.05556751 0.03416497 0.019762043
-0.041546114 -0.055532992 0.04346485 0.021572065 -0.05485464 0.05764505 0.0578587 -0.052947015
-0.052651055 -0.049401138 0.054861926 0.04792421 0.043087084 -0.054821838 0.0417243 0.02608223
-0.041858833 -0.053078603 0.04414003 0.024472326 -0.052357383 0.059231143 0.059948135 -0.049426455
-0.024433307 -0.015614234 0.019502282 -0.06580273 -0.06487714 -0.020328872 0.05452978 -0.09731571
0.015188075 -0.021322526 -0.058466274 -0.103894405 -0.02357898 0.022589983 0.035462614 -0.007537809
-0.026323007 -0.019128803 0.015756434 -0.060831226 -0.05132686 -0.021506375 0.09421338 -0.08988863
0.015749814 -0.021430047 -0.052367784 -0.09741729 -0.024332734 0.023198476 0.037532777 -0.002852408
-0.03495283 -0.030492174 -0.047907647 -0.042393565 -0.035951495 -0.03231953 0.067667894 0.060922053
0.1049701 -0.04348607 -0.022925187 0.069 -0.0490352 -0.058516618 -0.05408924 0.004050743
-0.054397885 -0.049064256 -0.032243896 -0.026622782 -0.022177007 -0.05276292 0.10120725 0.05709864
0.074289136 -0.06083579 0.015623336 0.07171972 -0.055729017 -0.034860533 -0.035060357 0.0033120965
0.035093732 -0.009668632 0.00063725933 -0.0021445453 -0.019384623 0.015597701 0.17002733 0.018422142
-0.08192528 0.03425855 -0.0003226123 0.022789309 0.041547414 -0.0026301853 -0.014175551 -0.019349886
0.04115774 0.02338375 0.002227242 0.024398679 0.020336568 0.021348579 0.108941734 0.045906566
-0.120154426 0.035213023 0.02787261 0.04116197 0.041425865 0.007112235 -0.0014784598 -0.03726758
-0.015702343 -0.004658724 0.009652075 0.045319416 -0.050872967 0.022555009 0.05277568 -0.0121203065
0.05421433 0.007708743 0.11665048 -0.011495745 -0.0015122758 0.032961763 0.019090636 0.053497877
-0.019163985 -0.007382488 0.0129637625 0.076602004 -0.0049986187 0.010433809 0.010918016 0.022733865
0.046927046 0.015371272 0.11772301 0.010970381 0.0022560544 0.030236963 0.015938988 0.064211614
-0.00800786 -0.054185025 -0.025401987 -0.04026914 -0.06474708 -0.017020583 -0.007823423 0.01305756
-0.05288419 -0.03789717 0.01617606 0.028735494 -0.014430263 0.0009687036 -0.017481456 -0.053403083
-0.017293805 -0.026792139 0.0016651822 -0.0035817707 -0.022335893 -0.0092585785 -0.18699563 2.779175e-06
-0.089058675 -0.025333598 -0.01202452 0.010532586 -0.007926472 0.027899807 0.015343426 -0.07211301
0.029416218 -0.02588283 -0.0446279 -0.0059884265 -0.059921116 0.019273221 -0.07453993 -0.018397748
-0.031650133 -0.004244268 0.04225132 -0.027769804 0.008992243 -0.012492958 -0.033276726 -0.030431231
-0.009344167 -0.0554648 0.005221584 0.0084055215 -0.06627433 -0.005822699 0.19897217 0.014141625
-0.068941 -0.034071654 0.067952275 0.02567056 -0.021704046 0.033414338 0.010845965 -0.075558454
-0.023039432 0.04916524 -0.026400039 0.016537663 -0.05128029 -0.050599396 -0.0009769499 0.027068945
-0.07349813 -0.011434764 0.027629495 0.015119672 0.00050476193 -0.021643065 -0.014843265 -0.009157873
0.025831997 0.07302175 -0.05064568 -0.08227912 -0.1314255 0.017300867 -0.08133893 -0.12842037
0.046398822 0.044219967 -0.065759815 -0.10207617 0.03091837 -0.078965545 -0.075272225 0.052559115
