params/brain3d-small-param/flair/conv1-kernels.npy (npy, 5264 bytes, 1 tensors)

array f4 [81, 16]
000000 3e cb e9 bd 78 3f d6 3d 06 17 eb bd fd 8e e6 bd
       -0.114157185 0.104613245 -0.11479001 -0.112577416
000010 74 56 dc 3d af e5 e8 bd 49 36 e7 bd 8b 0a d9 3d
       0.10758677 -0.11371934 -0.11289651 0.10597714
000020 3a 42 ea bd 6e 38 e9 bd 74 bd da 3d 01 f6 e7 bd
       -0.11438413 -0.11387716 0.106806666 -0.113262184
000030 0e 95 e5 bd 96 0e d8 3d 87 1a e7 bd 13 39 e6 bd
       -0.112100706 0.10549657 -0.112843566 -0.11241355
000040 3a 7d b1 3b a7 ca 10 be 40 67 0d be d0 2a 7f 3c
       0.0054165395 -0.14139806 -0.13808918 0.015574172
000050 4f b9 1b be 51 9c f7 bd fb 5b 94 3c 42 c1 1d be
       -0.15207408 -0.12090362 0.018110266 -0.15405753
000060 2b e9 fb bd 7c 84 22 39 e4 22 08 be 17 b6 02 be
       -0.12300333 0.00015498878 -0.1329456 -0.12764774
000070 87 9d 56 3c 46 ce 19 be 80 f2 05 be cf 4e 69 3c
       0.013099081 -0.15020093 -0.13080788 0.014239981
000080 d0 c4 ce bb 1b 69 a1 3c 78 18 b7 3c 64 f7 38 3e
       -0.006310083 0.019703439 0.022350535 0.18063122
000090 79 76 4c be a4 8d 1b 3e 54 60 18 3e 6d 00 23 be
       -0.19967069 0.1519075 0.14880496 -0.15918131
0000a0 5b 36 f9 3d 1c 96 ad 3d 2d 22 a3 bd 05 12 a3 3d
       0.121685706 0.08475897 -0.07965503 0.07962421
0000b0 a2 6d 2a 3e 26 00 3a be a1 7d 25 3e 5a 7a c1 3d
       0.16643384 -0.18164119 0.16161205 0.09447165
0000c0 2c 38 07 3d 3c a9 43 bd 9c 3c 9d 3c 20 7e 29 3d
       0.033012554 -0.047768816 0.01919394 0.041380048
0000d0 c0 9e 5c bd 30 c2 82 3c 34 70 51 bd df cc 6d 3d
       -0.053862333 0.015961736 -0.051132396 0.05805671
0000e0 6b d6 57 bd eb a1 38 be c5 6a 55 3e e3 aa 2a be
       -0.05269472 -0.18030517 0.2084151 -0.1666675
0000f0 00 a4 5e 3d 37 3e 9b bd 43 63 13 3d 98 f3 9c bd
       0.05435562 -0.07580226 0.035983335 -0.07663649
000100 6e 3b a4 ba 9f a6 55 bd b6 82 38 3d a8 89 1a be
       -0.0012529918 -0.052160855 0.04504653 -0.15091574
000110 4b 51 f2 3d 33 8f c7 bd 59 46 26 be a8 ae e9 3d
       0.11831912 -0.0974411 -0.16237773 0.11410266
000120 a8 7f cc bd 58 6a 35 be fe 6e 20 3e b9 ce 0f be
       -0.09985286 -0.17716348 0.1566734 -0.14043702
000130 c1 85 b7 3c a4 c1 a7 bd 0b 82 61 3d d7 26 13 3d
       0.022402646 -0.08191231 0.05505566 0.035925712
000140 64 c1 8d bd eb c8 20 be c3 1a 1e 3e 7a cc 14 be
       -0.06921652 -0.15701644 0.15439896 -0.14531127
000150 c8 ba a8 bd 90 31 b7 3d 68 6d 08 be 76 94 bd bd
       -0.08238751 0.08945 -0.13322985 -0.09256832
000160 5c e9 f3 3d 46 e0 09 be 01 2f 9b bd 31 41 c1 3d
       0.11909744 -0.1346446 -0.07577325 0.094362624
000170 5d 49 12 be aa 53 9d bd a3 b5 9c 3d fe 24 ee bd
       -0.14285798 -0.07681973 0.07651832 -0.116281494
000180 14 17 17 be 2d f1 cf 3d 80 c6 84 bd 36 78 03 be
       -0.14754897 0.101534225 -0.06483173 -0.12838826
000190 c8 f1 34 3d be ea e7 bd 56 ce b3 bd 50 1c ae 3c
       0.044175893 -0.113240704 -0.0877959 0.021253735
0001a0 08 07 a2 bd 60 23 9f bc 44 fc 95 bd 60 e0 8a 3b
       -0.07911497 -0.019426048 -0.073235065 0.0042381734
0001b0 96 d3 99 3c c7 8e d3 bd 61 3a 33 3d aa 84 ad bc
       0.01877765 -0.10329967 0.043756846 -0.021181423
0001c0 d5 c6 0f be 81 a0 dd 3d 7a 25 de bd f6 ca 1a 3e
       -0.14040692 0.10821629 -0.10846992 0.15116486
0001d0 94 ee 56 be 76 b1 20 3e 96 4b ff 3d c0 23 4e be
       -0.20989448 0.15692696 0.12465589 -0.20130825
0001e0 a4 96 20 3e 10 5b ab 3d 70 af e4 bd f5 da c2 3d
       0.15682465 0.08366978 -0.111662745 0.09514419
0001f0 00 06 cb b9 6d df a3 bd d0 98 15 3d 66 8c 07 be
       -0.00038723648 -0.080015995 0.036522686 -0.13237152
000200 30 0e 13 be 08 d0 ec 3d f8 93 c3 bd 00 7f f0 bc
       -0.14360881 0.11563116 -0.09549707 -0.029357433
000210 40 a0 cf 3b a4 f4 c2 3c d0 d8 2a bd 80 0b 09 3c
       0.006336242 0.023798294 -0.041710675 0.008364558
000220 24 55 8f 3d b4 b7 ff 3d 50 1b 14 be 14 78 54 3e
       0.06998661 0.124862105 -0.14463544 0.20748931
000230 ee dc 9d be 0b c7 a1 3e 60 a6 6f be 31 fb 24 be
       -0.30832618 0.3159717 -0.23403311 -0.16111447
000240 31 01 47 3e 08 6c 5f be 14 87 0a 3e b8 97 bc bd
       0.19434048 -0.21818554 0.1352809 -0.092086256
000250 eb 88 17 3e e0 c2 e2 bd 10 b9 8c 3d 8c a2 9d bd
       0.14798324 -0.11072326 0.06871235 -0.07697019
000260 9c b4 8f 3d 5e 8e 17 3e c4 39 eb bd f6 d3 fe 3d
       0.070168704 0.14800403 -0.11485627 0.12442772
000270 80 a9 27 bc 54 25 34 3d 00 9b 0e 3a 13 a3 28 3e
       -0.010233283 0.04398091 0.0005439967 0.16468458
000280 e9 37 22 bd 9b dc cf 3c 8f bb 55 bd ff 16 83 bc
       -0.0396041 0.025373748 -0.052180823 -0.016002176
000290 ea 00 be bd 37 9c 71 be 5a 97 a8 3d 46 79 0c be
       -0.09277518 -0.23594747 0.08231993 -0.13718137
0002a0 a2 b2 d4 bc e0 1a 58 bb b0 35 28 3d 98 75 f2 3c
       -0.025964085 -0.0032975003 0.041066825 0.029597089
0002b0 30 a7 d8 bb d2 52 e5 bd 34 f8 62 be 48 c5 97 3d
       -0.006611727 -0.11197437 -0.22164994 0.07410675
0002c0 96 cc f3 3c 4b 2c 91 bd 6b 40 8c 3d e3 1c 07 bd
       0.02976064 -0.07088526 0.06848224 -0.032986533
0002d0 5f cf 8f bc ea fd 09 3d 10 88 f9 3d 06 4b 29 be
       -0.017554937 0.033689417 0.12184155 -0.16532525
0002e0 c6 ee f1 3d 47 72 b6 bd d4 f4 d9 3d 58 b4 80 bd
       0.118131205 -0.089085154 0.106424004 -0.06284398
0002f0 dd 04 7c bd 58 55 76 3d be 67 1d bd 50 77 dc bb
       -0.061528075 0.060139984 -0.038429014 -0.0067280903
000300 eb ba de bd 48 07 9c 3d a3 92 bc bd 25 35 81 3d
       -0.108754955 0.07618576 -0.09207656 0.06308965
000310 52 9c 24 bd a3 a9 8e bd 52 9d d8 3d 2d d6 3a be
       -0.04018814 -0.069659494 0.105768815 -0.18245764
000320 a2 e5 dd bd c8 c1 0a 3d 74 ac 39 be 4a 72 07 be
       -0.108348146 0.03387621 -0.18132192 -0.13227192
000330 00 1d 01 3b 34 bb 91 bd 88 b3 86 3b f0 ae 53 3d
       0.0019701123 -0.07115784 0.0041107573 0.051680505
000340 59 f8 f9 3d a4 51 c4 bd d2 4e 88 3d e8 81 fa bd
       0.12205572 -0.09585884 0.06655659 -0.12231809
000350 a0 d4 13 3b 9e 8e fa bd 6e 2c 08 bd 2f ce 0b be
       0.0022557154 -0.12234233 -0.033245496 -0.13652872
000360 74 a9 fb bd f0 55 08 bd 1a 12 15 be a8 7e 62 be
       -0.1228818 -0.03328508 -0.14557686 -0.22118628
000370 6d e4 1e be 68 da 9f 3d ea 40 35 be c4 fb 0e 3d
       -0.15516825 0.078053296 -0.17700544 0.03490807
000380 ee 8f 4e bd 72 cd 29 3d 24 6d ac bc 18 28 4e bb
       -0.05043023 0.041455694 -0.021048136 -0.0031457003
000390 aa 8e b0 bd 86 27 8e bd 2c 22 eb bd 11 39 b9 3d
       -0.08620961 -0.06941132 -0.11481127 0.09044088
0003a0 0c 1c 35 be d4 04 12 bd e0 3c cd 3c 34 c7 15 bc
       -0.1768648 -0.035649136 0.025053442 -0.009141732
0003b0 90 44 63 3c 82 35 04 be 94 07 8d bd f0 07 0d bc
       0.013871327 -0.12911037 -0.06886211 -0.0086078495
0003c0 0b c1 09 3d d7 d1 5a bd c2 20 e7 3c 4f 3f 7f bd
       0.033631366 -0.053422775 0.028213862 -0.062316235
0003d0 85 15 d3 3d 91 ae ac bd b1 ea e1 bd 52 9f 07 3e
       0.10306839 -0.084317334 -0.11031092 0.1324437
0003e0 2a 6a 19 be e8 95 3e 3c d0 d5 d9 3b 60 9f e9 3b
       -0.14981905 0.01163242 0.006647803 0.0071295947
0003f0 ad 55 ad bd 62 2f 0f 3e fc 10 95 bc 1a a7 b1 bd
       -0.08463607 0.13982919 -0.018196575 -0.0867445
