params/brain3d-small-param/flair/conv3-kernels.npy (npy, 221264 bytes, 1 tensors)

array f4 [864, 64]
0	0xbd148b31	-0.036265556
1	0xbd053253	-0.032518696
2	0xbcdfd377	-0.027322514
3	0x3c1b3c14	0.009474773
4	0x3d02a581	0.031896118
5	0x3d1c492d	0.038155723
6	0x3cdf09f6	0.02722643
7	0x3d4246a9	0.047430668
8	0xbd09bb45	-0.03362586
9	0xbc5442b2	-0.0129553545
10	0xbbb68e3e	-0.005571156
11	0x3d539772	0.0516581
12	0xbd07e117	-0.033173647
13	0xbcc56306	-0.02409507
14	0x3d239a3d	0.039942015
15	0x3d17949c	0.03700696
16	0xbcb53507	-0.022120012
17	0x3ceebab1	0.029141756
18	0x3c7b40ff	0.0153353205
19	0xbd082258	-0.033235878
20	0x3cdde812	0.027088199
21	0x3d72848e	0.059208445
22	0x3caddede	0.021224435
23	0x3cf23c57	0.029569788
24	0x3c722022	0.014778169
25	0xbd114f77	-0.035476174
26	0x3d2609f1	0.040536825
27	0x3d40c42f	0.047062095
28	0xbd1449e2	-0.036203273
29	0x3cb4d067	0.02207203
30	0xbc5fab89	-0.013651737
31	0x3ba7ad29	0.005117078
32	0xbd30b97a	-0.043145634
33	0x3d840d89	0.06447894
34	0xbc861e96	-0.016372006
35	0x3d8179d2	0.063220635
36	0x3d289042	0.0411532
37	0x3d066093	0.032806944
38	0xbd12b269	-0.035814676
39	0xbc8492a6	-0.016183209
40	0xbc58d198	-0.013233565
41	0x3d2007ca	0.03906993
42	0xbd1409ea	-0.036142267
43	0x3c9446cd	0.018100167
44	0xbb4dbafb	-0.0031391967
45	0xbd1b1f22	-0.037871487
46	0xbd1e4d73	-0.03864808
47	0xba4c90e4	-0.0007803573
48	0x3d46ddad	0.04855125
49	0xbd096397	-0.033542242
50	0xbd000a79	-0.031259988
51	0xbcb59fd7	-0.022170944
52	0xbd0eb439	-0.034839842
53	0xbb87bfa9	-0.0041427207
54	0x3c3e19b6	0.01160281
55	0x3d182835	0.03714772
56	0x3d573965	0.05254497
57	0xbd18cbc7	-0.037303712
58	0xbd14dcbe	-0.03634333
59	0x3d30ca67	0.043161776
60	0xbcf08aca	-0.029363055
61	0xbd136daf	-0.035993274
62	0x00000000	0.0
63	0x00000000	0.0
64	0xbd0e92c2	-0.034807928
65	0xbcffaf99	-0.031211661
66	0x3cf04367	0.029329015
67	0x3cd0e64a	0.025500435
68	0x3c55d790	0.013051882
69	0xbd1ac4b7	-0.03778526
70	0xbccaacb0	-0.024740547
71	0xbcd28d81	-0.02570224
72	0xbb22606e	-0.0024776715
73	0x3cac40ad	0.021026934
74	0xbcb3268d	-0.021868968
75	0xbaf15822	-0.0018413106
76	0xbc9d0f22	-0.019172255
77	0x3ced5f9f	0.02897626
78	0xbcc3c7db	-0.02389901
79	0xbd25d061	-0.04048193
80	0xbb7cf3b4	-0.0038597407
81	0xbc9f7e0e	-0.019469287
82	0x3ca715a8	0.020396069
83	0x3d14e28b	0.03634886
84	0x3b2c7ab9	0.0026318266
85	0xbc9dea4f	-0.019276766
86	0x3c03d2a2	0.008045824
87	0xbd0d31b4	-0.03447123
88	0x3ce90868	0.028446391
89	0xbd0b784c	-0.03405027
90	0xbcf87313	-0.03032831
91	0xbcbc2341	-0.02296603
92	0xbd0e5412	-0.034748144
93	0x3c862619	0.016375588
94	0x3cbfbad1	0.02340451
95	0x3d1b5d4d	0.037930775
96	0xbbb355c9	-0.005472873
97	0xbbddf768	-0.006773878
98	0xbce0913a	-0.027413
99	0xbafa8eb2	-0.0019116013
100	0xbc8e6bd6	-0.017385405
101	0xbd152a09	-0.03641704
102	0xbd0cccfa	-0.03437517
103	0x3cda8979	0.02667688
104	0x3d0f10db	0.034928184
105	0xbc2a86b0	-0.010408089
106	0xbd0e16ac	-0.03468959
107	0x3d596091	0.05307061
108	0x3d70c255	0.05877908
109	0x3d3973dc	0.045276508
110	0x3cdbf965	0.026852319
111	0xbca8456c	-0.020540915
112	0xbca8d720	-0.020610392
113	0xbd03ddee	-0.03219407
114	0xbcf5c9ff	-0.030003546
115	0x3cd3467b	0.025790444
116	0x3c9f316d	0.019432748
117	0xbbc20334	-0.005920792
118	0x3cb87bba	0.022519935
119	0xbd25e3d2	-0.04050047
120	0xbc6135a0	-0.013745695
121	0x3cd976ef	0.02654597
122	0x3c713ea5	0.014724408
123	0x3c244440	0.010026038
124	0x3907d474	0.00012953748
125	0x3cb45207	0.02201177
126	0x00000000	0.0
127	0x00000000	0.0
128	0x3d0b5612	0.03401763
129	0x3d0facab	0.03507678
130	0xbcfef2bc	-0.031121604
131	0xbd0cfe69	-0.034422312
132	0xbcf5fb48	-0.030027047
133	0xbd37abb2	-0.044841476
134	0xbd2b644f	-0.04184371
135	0xbd2476aa	-0.04015223
136	0x3d849c8b	0.06475171
137	0x3d5c76e8	0.053824335
138	0x3caf1543	0.021372443
139	0xbd2d6c9f	-0.042339917
140	0x3d564a11	0.05231673
141	0xbc9221b0	-0.01783833
142	0xbd37e7c8	-0.04489878
143	0xbd44d14c	-0.048051164
144	0xbd551990	-0.05202633
145	0xbd30fa74	-0.0432076
146	0x3aeda068	0.001812947
147	0xbd1b1027	-0.0378572
148	0x3c2c448f	0.0105143925
149	0xbd171716	-0.03688725
150	0xbd2d4785	-0.042304534
151	0xbd278fbf	-0.04090857
152	0xbc26ddce	-0.010184718
153	0x3d084da5	0.033277173
154	0xbd2af4d4	-0.041737393
155	0xbd1d2e6d	-0.038374353
156	0x3d0b18ce	0.033959202
157	0x3d0c1a48	0.03420475
158	0x3d0947f0	0.03351587
159	0xbd020083	-0.03173877
160	0xbd494c22	-0.04914487
161	0xbd30c0e0	-0.04315269
162	0xbd4569ee	-0.048196726
163	0xbd0ccc23	-0.034374367
164	0xbd0d8e13	-0.03455932
165	0xbd3d4f35	-0.046218116
166	0x3d099a97	0.033594694
167	0xbce5023c	-0.027955167
168	0x3ccab3d6	0.024743956
169	0xbd22e933	-0.039773177
170	0x3d0adccd	0.03390198
171	0x3cc24962	0.023716632
172	0x3c57301e	0.013134031
173	0xbd30b0cf	-0.043137368
174	0xbd34505c	-0.04402195
175	0xbd44905d	-0.047989238
176	0xbd28bbdd	-0.041194785
177	0x3d03c743	0.032172453
178	0x3d2b1dc9	0.041776452
179	0xbd1a4590	-0.037663996
180	0xbd228be4	-0.03968419
181	0x3caaefed	0.020866359
182	0xbd0d4f57	-0.034499492
183	0xbd44de7d	-0.048063744
184	0xbd0f194f	-0.034936246
185	0xbd2e0aad	-0.04249065
186	0xbd298f9f	-0.041396733
187	0x3c04cee4	0.008105967
188	0xbd27c6ec	-0.04096119
189	0xbd27ed84	-0.040997997
190	0x00000000	0.0
191	0x00000000	0.0
192	0xbd0a5f44	-0.03378226
193	0xbccc3be6	-0.024930906
194	0x3c6a0c0b	0.014285098
195	0x3c7cb875	0.015424837
196	0x3d2cbfcc	0.0421751
197	0x3cbfd290	0.023415834
198	0x3d467f39	0.048461173
199	0x3d68f97c	0.05687855
200	0xbd004ce0	-0.031323314
201	0x3cc535d5	0.02407352
202	0x3c6b9479	0.01437866
203	0x3a06c8d7	0.0005141622
204	0xbc0e6ce9	-0.008692958
205	0x3d20e04f	0.039276417
206	0xbbfd6276	-0.0077326847
207	0x3c4f8350	0.012665585
208	0xbc6f3327	-0.014599598
209	0x3c58f907	0.0132429665
210	0x3d183909	0.037163768
211	0xbcf49fed	-0.029861415
212	0xbcb840e6	-0.022491883
213	0x3d3f6247	0.046724584
214	0x3ba57afa	0.0050500603
215	0xbb6066fc	-0.003424107
216	0x3c8af0a3	0.016960448
217	0xbd075c37	-0.033046927
218	0x3c2de31c	0.010613229
219	0x3d38d7e3	0.04512776
220	0xbd0a226d	-0.033724237
221	0x3d7a7258	0.061144203
222	0xbc599c06	-0.013281828
223	0x3a81360f	0.000985803
224	0xbd249f8d	-0.040191222
225	0x3cc2f97a	0.0238006
226	0xbb507b83	-0.00318119
227	0x3caf0e3b	0.02136909
228	0x3c82c675	0.015963772
229	0x3c54d161	0.012989373
230	0xbd08a6db	-0.03336225
231	0x3cd15b4c	0.025556229
232	0x3d0e5f2a	0.034758724
233	0x3d109407	0.03529742
234	0xbd09e6d7	-0.03366741
235	0x3bec60a4	0.007213669
236	0x3bd0d1c0	0.0063726604
237	0xbd107fe5	-0.03527822
238	0xbd137674	-0.036001638
239	0x3c2d928e	0.010594023
240	0x3bc239d2	0.005927303
241	0xbcfff667	-0.031245423
242	0xbcee8be7	-0.029119445
243	0xbcb01293	-0.021493232
244	0xbcfee2ff	-0.0311141
245	0xbca9c126	-0.020721983
246	0x3cb36fd2	0.021903906
247	0xbb7d81ca	-0.0038682097
248	0xbcab6c8b	-0.02092578
249	0xbd0e554f	-0.034749325
250	0xbd0aab3b	-0.033854704
251	0x3dc52cee	0.0962771
252	0xbc8156ff	-0.015788553
253	0xbd09554d	-0.033528615
254	0x00000000	0.0
255	0x00000000	0.0
