params/brain3d-small-param/t1gd/conv1-kernels.npy (npy, 5264 bytes, 1 tensors)

array f4 [81, 16]
0	0xbde8badb	-0.11363765
1	0x3ddfbba8	0.109244645
2	0xbdc28f24	-0.09499958
3	0xbdf3f2e7	-0.11911564
4	0x3df92881	0.12165929
5	0xbdcfe112	-0.10150351
6	0xbdecf80a	-0.11570747
7	0x3df3c368	0.11902505
8	0xbdcbf869	-0.0995949
9	0xbdee6b7c	-0.11641595
10	0x3df73938	0.120714605
11	0xbdc85d0c	-0.09783372
12	0xbdf387f9	-0.11891169
13	0x3dfc11e2	0.123080984
14	0xbdce2e9d	-0.100674845
15	0xbdee0c2b	-0.116234146
16	0x3d8586bc	0.06519839
17	0xbe2c5694	-0.16829902
18	0xbe2844dc	-0.16432518
19	0x3b5e0b68	0.003388131
20	0xbda96153	-0.08270516
21	0xbe136ad7	-0.14396225
22	0x3d1018f2	0.03518004
23	0xbdff96c1	-0.12479926
24	0xbe1c0472	-0.15236071
25	0x3caa242d	0.020769203
26	0xbdda58e7	-0.10661488
27	0xbe14a022	-0.14514211
28	0x3bce9295	0.006304095
29	0xbdbbbc26	-0.09166746
30	0xbe15a111	-0.14612223
31	0x3d44eec5	0.04807927
32	0xbd7721d9	-0.060335014
33	0x3d852261	0.06500698
34	0xbcbe97ac	-0.023265682
35	0xbdc5d070	-0.09658897
36	0x3e0f939a	0.1402115
37	0xbd293040	-0.04130578
38	0xbbd47e80	-0.0064848065
39	0x3c6cb048	0.014446326
40	0xbbd3b486	-0.006460729
41	0x3e2037af	0.15646242
42	0xbe4d36b8	-0.20040405
43	0x3d8e714d	0.06955204
44	0xbda1b592	-0.0789596
45	0x3dcc7bdd	0.099845625
46	0xbcbb01b3	-0.022827959
47	0x3d26b27e	0.040697567
48	0x3d443668	0.04790345
49	0xbdcbe83e	-0.09956406
50	0x3d2c2cbb	0.042034846
51	0xbda118a4	-0.07866028
52	0x3d8614fd	0.06546972
53	0xbcad14f0	-0.021128148
54	0x3d558b30	0.052134693
55	0xbdcb1290	-0.0991565
56	0x3c7d679c	0.015466597
57	0x3d59601a	0.053070165
58	0xbe00a541	-0.1256304
59	0x3d159097	0.036514845
60	0xbe154114	-0.14575607
61	0x3e446eeb	0.19182937
62	0xbd23eeb9	-0.040022586
63	0xbdf176f4	-0.11790267
64	0x3d725013	0.059158396
65	0xbe74f698	-0.23922193
66	0x3de63ee7	0.112424664
67	0xbde549f0	-0.11195743
68	0xbd76b700	-0.060233116
69	0xba669c00	-0.00087970495
70	0x3cf2cc70	0.029638499
71	0xbe5d6416	-0.21620211
72	0x3d7d1750	0.06178981
73	0xbd436259	-0.047701214
74	0xbdc50058	-0.09619206
75	0x3d1a7c94	0.037716463
76	0xbe00d120	-0.12579775
77	0xbc97abcc	-0.018514536
78	0x3c8c85c8	0.017153636
79	0x3cdbea5f	0.026845155
80	0xbd2fe85a	-0.042946197
81	0xbdc9d72d	-0.09855495
82	0x3d605ea3	0.054777753
83	0xbdf47362	-0.1193607
84	0xbb876080	-0.0041313767
85	0x3ce41c48	0.027845517
86	0xbdfb2d2c	-0.12264475
87	0x3aa00d00	0.0012210906
88	0x3caf9f00	0.021438122
89	0xbe349b0c	-0.1763727
90	0x3d9c5911	0.076341756
91	0xbce97948	-0.028500214
92	0xbcd15ba6	-0.025556397
93	0xbe1b7cb8	-0.15184295
94	0x3ce31555	0.027720133
95	0xbc215595	-0.0098470645
96	0x3c6cf310	0.0144622475
97	0xbdd004ba	-0.101571515
98	0x3cdb0070	0.026733607
99	0xbe53e726	-0.20693645
100	0x3e883558	0.26603198
101	0xbce6688e	-0.028126027
102	0xbe5ab8ff	-0.21359633
103	0x3e6e4c77	0.23271357
104	0xbd23d408	-0.03999713
105	0xbdb7a8ef	-0.089677684
106	0x3d75ad98	0.059980005
107	0xbc9bb060	-0.019005
108	0xbe203ad2	-0.15647438
109	0x3e33978f	0.17538284
110	0xbcdc955e	-0.026926693
111	0xbdf23acf	-0.11827623
112	0xbcb43d32	-0.022001836
113	0xbcb82749	-0.02247967
114	0x3bcc5e87	0.0062368545
115	0xbe2c1673	-0.16805439
116	0x3e1de752	0.15420273
117	0xbcdd9050	-0.027046353
118	0xbe7f06ee	-0.24904987
119	0x3e8355b6	0.2565133
120	0xbd545967	-0.051843073
121	0xbe2cfcc8	-0.16893303
122	0x3e5e1834	0.2168892
123	0xbc1dea68	-0.009638406
124	0xbd15d6c0	-0.036581755
125	0x3d2fd190	0.042924464
126	0x3b9aaec0	0.004720539
127	0xbc84b008	-0.01619722
128	0x3daab3ec	0.083350986
129	0xbc80977e	-0.015697237
130	0xbc0a3fc3	-0.008438054
131	0xbe139bc7	-0.14414893
132	0x3e98c5dc	0.29838455
133	0xbc5ddcd8	-0.013541423
134	0x3dc09018	0.09402484
135	0xbd743100	-0.059617043
136	0xbc8c8fe4	-0.017158456
137	0x3e276844	0.16348368
138	0xbe1d13c9	-0.15339579
139	0xbccdb700	-0.025111675
140	0xbddec0af	-0.10876595
141	0x3e6b2d64	0.22966534
142	0xbc256820	-0.010095626
143	0x3deda6c8	0.116040766
144	0x3d8fe067	0.07025223
145	0xbc4b31a0	-0.012401968
146	0x3d67a50f	0.056553897
147	0x3c3dd4b8	0.011586361
148	0xbcbd2278	-0.023087725
149	0xbe1cd687	-0.1531621
150	0xbd628606	-0.055303596
151	0x3de06ad1	0.109578736
152	0xbdd75bb7	-0.1051554
153	0x3bf34f70	0.007425241
154	0x3d913c9c	0.070916384
155	0x3d395ad4	0.045252636
156	0x3c423f20	0.0118558705
157	0xbd6a2694	-0.057165697
158	0xbe89d2a8	-0.2691853
159	0x3d8787c8	0.06617695
160	0xbe0e6d4c	-0.13908881
161	0x3d940374	0.07227221
162	0xbc07e33f	-0.008293926
163	0xbd24150e	-0.04005914
164	0xbcb618c0	-0.022228599
165	0x3d931242	0.07181217
166	0xbdc6375a	-0.09678526
167	0x3d236b30	0.039897144
168	0x3bc10200	0.005890131
169	0x3e29d6fe	0.1658592
170	0xbe885b52	-0.26632172
171	0xbbe30ce0	-0.006929025
172	0xbd31c5d8	-0.04340157
173	0xbd019544	-0.03163649
174	0x3d48ae04	0.04899408
175	0xbe1dda36	-0.15415272
176	0x3dda1fa6	0.10650568
177	0xbe0ac19c	-0.13550419
178	0xbd3947f0	-0.04523462
179	0xbc5b07c0	-0.013368547
180	0x3c354170	0.011062965
181	0xbca222a0	-0.019791901
182	0x3d0e80e4	0.03479089
183	0x3c9a6c34	0.018850423
184	0x3d93cd34	0.07216874
185	0xbc0f8ed0	-0.0087620765
186	0x3d39e028	0.045379788
187	0x3e4e2252	0.2013028
188	0x3dc2f198	0.095187366
189	0xbdbc50ba	-0.09195085
190	0x3d89c5f8	0.06727213
191	0x3de90e88	0.11379725
192	0xbdf812b2	-0.12112941
193	0x3d9bb5a3	0.07603004
194	0xbd099bff	-0.033596035
195	0x3db8d43f	0.09024858
196	0xbddded36	-0.1083626
197	0xbcd25878	-0.02567695
198	0xbdadf0e6	-0.08493213
199	0x3d3af9b8	0.045648307
200	0xbbdd8874	-0.0067606512
201	0x3cef4708	0.029208675
202	0xbd31c178	-0.043397397
203	0x3dac61a0	0.08417058
204	0xbe2fb272	-0.17157915
205	0x3e0bc2a2	0.13648465
206	0xbdb1dea0	-0.086850405
207	0xbe80661a	-0.25077897
208	0x3e9c500a	0.30529815
209	0xbe7e9175	-0.24860175
210	0x3d4de3c1	0.05026603
211	0xbdaa2c9e	-0.08309291
212	0x3e691f2e	0.227658
213	0x3d66c4f0	0.056340158
214	0xbdc772b4	-0.09738675
215	0x3e6338ee	0.22189686
216	0x3c0a9d30	0.008460328
217	0xbcc5f3f0	-0.02416417
218	0x3dfe8ad0	0.1242882
219	0xbd583560	-0.052785277
220	0xbb9dbf40	-0.0048140585
221	0x3e02e6c5	0.12783344
222	0x3d9af7e6	0.07566814
223	0x3a7f8400	0.00097471476
224	0xbd3d4a45	-0.046213407
225	0x3d604168	0.054749876
226	0xbd128bae	-0.03577774
227	0x3dd79734	0.105268866
228	0xbd25204f	-0.040314015
229	0x3e4b3a13	0.19846372
230	0xbd9f75d3	-0.07786145
231	0x3dece368	0.11566812
232	0x3dd4dfe2	0.10394265
233	0xbd021180	-0.03175497
234	0x3ca2da24	0.019879408
235	0x3b6b0320	0.0035860017
236	0x3c9bd748	0.019023553
237	0xbd31dab8	-0.043421477
238	0x3de83cbc	0.11339709
239	0x3e0a5ae4	0.13511235
240	0x3b4c97a8	0.0031218324
241	0x3c96bba1	0.018400015
242	0x3b7358cf	0.0037131791
243	0x3d6b629d	0.05746709
244	0x3c08af34	0.008342553
245	0x3e579e1a	0.21056405
246	0xba435cb8	-0.0007452476
247	0x3c9275e2	0.017878477
248	0x3e0ea408	0.1392976
249	0x3e102d94	0.14079887
250	0xbe568ac8	-0.20951378
251	0x3e110293	0.14161138
252	0xbc9b6ee1	-0.01897377
253	0xba803cd0	-0.0009783749
254	0x3d59faba	0.053217627
255	0xbd1b4f9b	-0.037917715
