params/brain3d-small-param/t1gd/conv3-kernels.npy (npy, 221264 bytes, 1 tensors)

array f4 [864, 64]
0.047734316 0.02580207 0.019348688 0.060170207 -0.038700692 0.08270733 -0.031895045 0.023206374
-0.0035853956 -0.03594384 -0.035917602 -0.039978746 0.01052005 -0.021384034 0.071677834 -0.03202845
-0.039691772 0.016485834 -0.040091522 -7.770335e-05 -0.047927696 -0.01612324 0.04367079 0.0011151445
0.016964981 0.055148195 -0.022002887 0.030702433 -0.016869139 0.00047393466 -0.029174546 0.04561053
0.010761432 -0.021192614 0.04767007 -0.030202977 0.017415656 0.00073749246 -0.0118722785 -0.028362403
-0.04009826 0.03800298 0.020452105 0.037851516 0.025229786 0.009384507 -0.040140007 -0.02372103
-0.019527389 0.03799475 -0.030297449 0.012080311 -0.044670038 0.025526347 -0.014769124 0.023012852
0.03633654 -0.0011896348 0.014431599 0.015445509 0.0 0.0 0.0 0.0
0.028133113 0.044532664 0.023905141 -0.002098059 -0.047349826 0.037888248 -0.05540901 -0.0019082647
0.104826435 -0.049854606 -0.013277887 -0.014702413 0.013063491 -0.049260307 0.026431374 -0.014134235
-0.014596876 0.08770905 -0.014743887 -0.06403055 -0.04125078 0.01732866 0.012045747 0.04150141
0.034958664 -0.0029383209 0.011919774 0.0073703043 -0.06733761 -0.0061991015 -0.024904445 0.015539531
-0.009037269 -0.03877666 0.02506363 -0.011575785 -0.021034762 -0.007020746 0.0461761 -0.039323047
-0.014746364 -0.028465152 0.040839694 0.074956715 0.032391544 0.029108766 -0.014761718 0.008250495
0.044339117 -0.012926785 -0.04768282 -0.029228287 -0.050435763 0.036919817 -0.037972655 0.023623547
0.0073355506 -0.048538536 -0.04906644 0.055449393 0.0 0.0 0.0 0.0
0.024196317 0.027700847 -0.024430519 0.029144801 -0.043873515 0.04522122 -0.04584259 -0.0013411362
-0.009883179 -0.04740299 -0.014832012 -0.015101035 0.030064747 0.04766348 -0.00178763 -0.00819812
-0.014992637 -0.02039187 -0.015143634 -0.04718073 -0.05222018 0.02795054 -0.0024443376 -0.0008483156
0.019159779 0.039870724 -0.01504744 0.008153197 -0.056583777 0.017299667 -0.04946961 -0.044066444
-0.045970645 -0.036357336 0.059440617 -0.04113432 0.010354867 -0.006575566 0.063331306 -0.043995142
-0.015146179 0.0063772867 0.028608346 0.059292365 -0.017104808 0.06337544 -0.015161947 0.011823182
0.016914738 0.033587024 -0.04081848 -0.028486397 -0.041727982 0.05831922 -0.048862714 0.03127654
-0.0077072526 -0.042557698 -0.040866006 0.02409503 0.0 0.0 0.0 0.0
0.03031672 -0.022263689 0.04722868 -0.0023336478 -0.04618611 0.010892455 0.019260561 0.010742393
0.05634218 -0.057966225 -0.014278963 -0.020841114 -0.004667853 -0.021379225 -0.00881291 -0.020035706
-0.020691514 0.021705307 -0.020899905 0.008212704 -0.058924027 0.006902911 -0.02735943 0.011958071
0.015534481 -0.07633322 -0.013809493 0.020080304 0.0030307556 -0.00717458 0.019296879 0.07180759
0.024474127 -0.04734975 -0.03518627 -0.02931557 0.020573752 0.021441419 0.0510402 -0.0149808945
-0.020903418 0.0032658728 0.021950688 0.03685948 0.09648663 0.007653609 -0.020925181 0.017589351
0.09664259 -0.007251526 -0.04991443 -0.07457557 -0.051026605 0.04499376 -0.056773834 -0.037592158
0.011583738 0.02781932 0.03039015 0.028124202 0.0 0.0 0.0 0.0
00000000: 0f85 433d dd5e d33c 2481 9e3c 0975 763d
00000010: 9e84 1ebd 7662 a93d 61a4 02bd 4b1b be3c
00000020: f5f8 6abb d939 13bd 561e 13bd c1c0 23bd
00000030: 4a5c 2c3c 922d afbc d4cb 923d 4430 03bd
00000040: d793 22bd 4d0d 873c 0237 24bd abf4 a2b8
00000050: d54f 44bd e314 84bc 24e0 323d 0a2a 923a
00000060: 25fa 8a3c 13e3 613d 663f b4bc ab83 fb3c
00000070: 2631 8abc 6f7a f839 75ff eebc 1bd2 3a3d
00000080: b850 303c 229c adbc b141 433d 3c6c f7bc
00000090: 47ab 8e3c 4854 413a f283 42bc 4558 e8bc
000000a0: 133e 24bd 03a9 1b3d 2c8b a73c 310a 1b3d
000000b0: b2ae ce3c 7ac1 193c d969 24bd 9b52 c2bc
000000c0: e7f7 9fbc 62a0 1b3d 5b32 f8bc 7fec 453c
000000d0: eef7 36bd a11c d13c 32fa 71bc 7385 bc3c
000000e0: a0d5 143d 85ed 9bba 8372 6c3c 290f 7d3c
000000f0: 0000 0000 0000 0000 0000 0000 0000 0000
00000100: 6a77 e63c e267 363d b7d4 c33c 977f 09bb
00000110: e4f1 41bd b530 1b3d 8ff4 62bd bd1e faba
00000120: 3eaf d63d 5834 4cbd 7f8b 59bc 64e2 70bc
00000130: 4108 563c 2dc5 49bd 9c86 d83c 4793 67bc
00000140: bc27 6fbc cda0 b33d 5890 71bc 7322 83bd
00000150: 94f6 28bd d5f4 8d3c 865b 453c 62fd 293d
00000160: d130 0f3d d890 40bb 284b 433c 9882 f13b
00000170: 4de8 89bd d521 cbbb 6804 ccbc 8499 7e3c
00000180: 0e11 14bc 46d4 1ebd 3e52 cd3c 5da8 3dbc
00000190: 1851 acbc 490e e6bb 2623 3d3d 3411 21bd
000001a0: bc9a 71bc c02f e9bc 8647 273d e882 993d
000001b0: ffac 043d 8275 ee3c 22db 71bc 162d 073c
000001c0: ef9c 353d deca 53bc 104f 43bd 2970 efbc
000001d0: bb95 4ebd 3c39 173d 3789 1bbd 2b86 c13c
000001e0: 0f5f f03b 58d0 46bd e4f9 48bd e71e 633d
000001f0: 0000 0000 0000 0000 0000 0000 0000 0000
00000200: 5b37 c63c e3ec e23c 8322 c8bc 14c1 ee3c
00000210: b7b4 33bd e339 393d 71c5 3bbd 10c9 afba
00000220: 0fed 21bc a329 42bd f801 73bc 556a 77bc
00000230: 584a f63c c83a 433d e94e eaba 6851 06bc
00000240: ada3 75bc da0c a7bc 011d 78bc 9540 41bd
00000250: d4e4 55bd 88f8 e43c 2e31 20bb 7f61 5eba
00000260: f8f4 9c3c 7c4f 233d 8a89 76bc fd94 053c
00000270: 64c4 67bd 08b8 8d3c a5a0 4abd 047f 34bd
00000280: b74b 3cbd 6eeb 14bd 0178 733d 767c 28bd
00000290: 76a7 293c d877 d7bb d8b3 813d 4034 34bd
000002a0: ae27 78bc 8ff8 d03b 0d5c ea3c 8ddc 723d
000002b0: 621f 8cbc fcca 813d d169 78bc 05b6 413c
000002c0: c790 8a3c 8c92 093d 4731 27bd 4e5c e9bc
000002d0: f6ea 2abd 22e0 6e3d 4524 48bd d41b 003d
000002e0: 1f8d fcbb fb50 2ebd 1d63 27bd f162 c53c
000002f0: 0000 0000 0000 0000 0000 0000 0000 0000
00000300: c55a f83c 5762 b6bc dc72 413d 1df0 18bb
00000310: a52d 3dbd 4476 323c 53c8 9d3c dd00 303c
00000320: 0fc7 663d fe6d 6dbd 50f2 69bc fcba aabc
00000330: caf4 98bb 7c23 afbc 0664 10bc ec21 a4bc
00000340: 4081 a9bc 54cf b13c 4736 abbc 948e 063c
00000350: 525a 71bd d031 e23b e220 e0bc c9eb 433c
00000360: 5684 7e3c 9754 9cbd 3641 62bc 737f a43c
00000370: a49f 463b bd18 ebbb 7d14 9e3c dc0f 933d
00000380: f77d c83c d0f1 41bd 7a1f 10bd 3527 f0bc
00000390: 498a a83c eaa5 af3c 870f 513d 6d72 75bc
000003a0: a53d abbc 4108 563b eed1 b33c f7f9 163d
000003b0: c89a c53d 20cb fa3b 496b abbc 8b17 903c
000003c0: 8dec c53d 369e edbb 1373 4cbd 14bb 98bd
000003d0: 4601 51bd 604b 383d ae8b 68bd 3cfa 19bd
000003e0: b8c9 3d3c 58e5 e33c c4f4 f83c ba64 e63c
000003f0: 0000 0000 0000 0000 0000 0000 0000 0000
