params/brain3d-small-param/t1gd/conv2-kernels.npy (npy, 55376 bytes, 1 tensors)

array f4 [432, 32]
000000 07 59 36 bc 90 e3 08 bd 23 f2 81 3d 03 55 7e 3d
       -0.011129624 -0.033420146 0.06345012 0.062092792
000010 89 48 6a bd 2c ee ce bc 17 28 82 3d 28 3c 3b bd
       -0.05719808 -0.025260054 0.06355303 -0.045711666
000020 65 67 f3 bc 67 98 6b bc 52 3e 84 3d 5b 68 7a 3d
       -0.029712388 -0.014379597 0.06457199 0.061134677
000030 95 34 ad ba d0 dc d3 3c 44 a2 76 3d bf 73 82 3d
       -0.0013214523 0.025862128 0.060213342 0.06369733
000040 f0 35 80 bc e9 b6 2b bd ef 18 84 3d 04 96 77 3d
       -0.01565072 -0.041922484 0.06450068 0.0604458
000050 ed 89 6a bd 54 02 ac bc 70 e4 81 3d 2b c9 46 bd
       -0.057260443 -0.020997204 0.06342399 -0.048531692
000060 b2 ca 00 bd 63 9a 75 bc a9 ec 83 3d 15 32 7a 3d
       -0.031443305 -0.014990422 0.06441624 0.06108292
000070 8d aa 1c b9 3f 2a cf 3c f6 8c 6a 3d 67 7f 80 3d
       -0.00014940854 0.0252887 0.057263337 0.062743
000080 54 12 b9 3d 20 7b 66 3d c0 30 83 bc f8 cd 74 bc
       0.09036699 0.056269765 -0.016014457 -0.014941685
000090 dd 83 79 bd a1 31 29 bd a0 b3 20 bc c6 74 88 bd
       -0.06091677 -0.041307095 -0.009808451 -0.06662898
0000a0 b5 79 ea bc 9b 45 ce 3d 5f 8c 9d 3c 48 2b 7f bc
       -0.028622488 0.1007187 0.019231973 -0.015574284
0000b0 4d 73 bb 3d 34 87 5a 3d 4a e5 bf bc fc af 7f 3c
       0.09152851 0.053351596 -0.023424763 0.015605923
0000c0 d4 ef b7 3d 14 1e e3 3d c1 5d 87 bc 48 5c 5f bc
       0.089812905 0.11089721 -0.016524198 -0.013632841
0000d0 7b d5 79 bd f8 d8 a1 3c dc b8 34 bc 9d 85 11 bd
       -0.060994606 0.01975678 -0.011030402 -0.035527814
0000e0 d1 ec 18 bd ac fb 06 3e 01 51 de 3b 97 75 90 bc
       -0.03733522 0.13181943 0.0067845588 -0.017634196
0000f0 6c 53 8d 3d 42 f5 6b 3d 12 31 a0 bc c4 a1 0d 3b
       0.06900677 0.057606943 -0.019554649 0.0021611312
000100 20 c2 54 bc 65 d4 93 bd b9 f2 68 bc 00 6a e2 bb
       -0.012985736 -0.072182454 -0.014218026 -0.006909609
000110 00 05 61 3c 90 7c 26 be 88 85 86 bc 0a d3 33 bd
       0.013734102 -0.16258454 -0.016421095 -0.043902434
000120 83 52 c9 3c 87 ac 9b bd b1 4f 07 bb c6 a5 09 b9
       0.024575477 -0.07601266 -0.0020646865 -0.00013127094
000130 65 6f 9e 3c c6 a5 a4 3b 38 07 20 3c 3b 69 82 3b
       0.019340226 0.0050246445 0.009767346 0.0039798296
000140 f4 5f c2 3b e2 13 96 3c 0a d6 6e bb 94 e5 88 bc
       0.0059318487 0.018320028 -0.0036443495 -0.016711034
000150 64 64 9e bc 92 cd 07 be 19 51 8e bc 7a ae 29 bd
       -0.01933498 -0.13262013 -0.017372655 -0.04142616
000160 57 b2 30 3d fa bd 89 3b 00 2d 97 bb 13 38 a5 bb
       0.043138828 0.004203555 -0.0046135187 -0.005042085
000170 49 17 7e 3c 8c c9 3a 3d 74 51 34 3b d6 46 0b bb
       0.015508481 0.045602366 0.002751437 -0.0021251938
000180 67 e0 96 bd 2e 42 24 bd 20 25 53 3b 00 de 8b bb
       -0.0736702 -0.040102176 0.0032218173 -0.004268408
000190 bc e9 ca bd 20 a7 87 3d 00 b0 44 bb 37 e9 63 bd
       -0.099078625 0.066236734 -0.003001213 -0.055642333
0001a0 98 24 c6 3d 80 43 e8 bb 68 09 82 3b 95 cd 56 bc
       0.096749485 -0.0070881248 0.0039684065 -0.013110538
0001b0 90 47 dc bc 61 d6 37 3d ef c3 4c 3b 1f 3e 12 3c
       -0.026889592 0.044882182 0.0031244715 0.008925944
0001c0 22 21 23 bd fb 81 18 3c de 2d 1d 3b 10 72 ac bc
       -0.03982652 0.0093083335 0.0023983638 -0.021050483
0001d0 79 8e b6 bd 98 03 19 3e e6 44 86 bc 88 76 a5 3c
       -0.08913893 0.14942777 -0.016390275 0.020198122
0001e0 15 ff bb 3d 29 f7 2c 3d ca 33 7c bc d0 fa 1f bc
       0.091795124 0.042227898 -0.015393207 -0.009764388
0001f0 59 96 78 bd fd ca 96 3c 19 62 90 bc cd cd 2d bc
       -0.060690258 0.01840734 -0.017624902 -0.010608149
000200 19 34 c1 3d 24 89 6b bd 48 3d 47 3b 70 6d dd 3c
       0.09433765 -0.057503834 0.0030401517 0.027029723
000210 a8 62 1b 3d 4b 2d d3 3c 00 90 e5 39 e0 c3 08 3c
       0.037935883 0.025778433 0.00043785572 0.0083474815
000220 cf b4 0b be 44 f6 98 bd cc cb 84 3c 00 b7 2d b9
       -0.13643192 -0.074688464 0.01621046 -0.00016566738
000230 df 95 b5 3d 09 4d c1 3c 82 0b 86 3b 90 7c 0b 3c
       0.08866476 0.023596304 0.0040907273 0.008513585
000240 67 7e 25 bd 50 ba 9f bd 3a 54 23 3c a7 f5 cd 3b
       -0.04040375 -0.07799208 0.009968812 0.0062853876
000250 83 47 c8 bc 09 86 d2 3c 69 b3 a9 bb 00 89 a1 bc
       -0.024448162 0.025698679 -0.005178858 -0.019718647
000260 18 d0 28 bb e2 3b 17 bc e8 bd b0 3b 72 e4 94 bb
       -0.00257588 -0.009230586 0.0053937323 -0.0045438344
000270 32 92 3a 3c eb f7 c5 3c 28 95 4d 3c 32 48 84 3c
       0.011387395 0.024166068 0.012547769 0.016147707
000280 33 d6 b4 3d 53 a1 72 bd 82 a6 4f bc 50 d0 f5 bc
       0.08829918 -0.059235882 -0.012673976 -0.030006558
000290 60 f7 46 bd f4 67 d8 3c 50 7d a5 bc ec 9e 3f 3d
       -0.04857576 0.026416756 -0.020201355 0.04678242
0002a0 5c 87 a0 3d d0 46 88 bd 40 f1 40 bc 50 cc 6f bc
       0.07838318 -0.066541314 -0.0117762685 -0.014636114
0002b0 80 70 ae 39 90 ca a6 3d 88 67 1e bc e2 bf 8f 3b
       0.00033271685 0.081441045 -0.009668238 0.004386888
0002c0 a8 8c f8 bc c9 c3 17 be a4 26 11 bd 38 ed 6c bc
       -0.030340508 -0.1482078 -0.03543724 -0.014460854
0002d0 2a f5 b6 bc 73 65 19 be 9d 2c 52 bc cf bb b2 bc
       -0.0223337 -0.14980106 -0.012828019 -0.02181807
0002e0 48 46 0e 3d c5 3b e9 bd de ce a8 3b ae 11 a6 bc
       0.034734994 -0.11388353 0.0051516136 -0.020272102
0002f0 0f 7e 0e 3d a1 b7 ee 3c 29 f9 04 3a f2 b5 bd 3c
       0.034788188 0.029140295 0.0005072528 0.023158047
000300 34 da b1 3d 2f c2 17 be 6c 2c 99 bb 88 c0 89 bc
       0.08684197 -0.14820169 -0.004674485 -0.016815439
000310 70 4f d2 3c a8 e1 80 3c c8 37 85 bb e8 11 03 3d
       0.025672644 0.015732601 -0.0040654875 0.0319995
000320 e0 2b 82 3c 90 ee b4 3c b0 a7 f3 3c 00 a1 73 bc
       0.015890062 0.022086412 0.029743046 -0.014869928
000330 86 e9 a3 bd db d5 aa bd 4c b6 d6 bc 2d 68 42 3d
       -0.080035254 -0.08341571 -0.026209973 0.04746263
000340 cd 6f f1 3d a7 aa b5 bd 68 7e 62 ba 15 ba 85 bc
       0.117889024 -0.0887044 -0.0008640052 -0.016324082
000350 b2 39 f2 3b 86 12 8a 3c 66 fa 0d bc 35 6a 9e bb
       0.0073921317 0.016854536 -0.008665657 -0.004834438
000360 28 b4 b0 bd 3b ce c7 3c e1 65 88 3c 86 88 dd bb
       -0.08628112 0.02439033 0.016650142 -0.0067606596
000370 c8 ca 7e 3d 20 41 4e 3d 4b 8f 47 bd bc 38 80 3c
       0.062205106 0.050355077 -0.04872064 0.015652053
000380 cc 3e 66 bd 8a 2e e0 bd 9c 9f 10 bc b0 ec 08 bc
       -0.05621223 -0.109463766 -0.008827116 -0.008357212
000390 c0 4a 5e 3b 00 ec 5d b9 e0 42 b7 bb 48 fe ee 3c
       0.0033919066 -0.00021164119 -0.005592689 0.029173985
0003a0 08 e1 a2 3c f0 f6 d8 3c 88 fc 5a 3c 40 3f 04 bc
       0.019882694 0.026484936 0.013365872 -0.008071721
0003b0 b8 69 cb 3d d4 5e 8f 3d 9c 09 cf bc bc ef 90 bb
       0.099322736 0.07000509 -0.025273137 -0.00442311
0003c0 72 26 8d bc bc 62 cf bc 51 4f 5a bc 07 37 bc bc
       -0.017230246 -0.025315635 -0.013324575 -0.022975458
0003d0 9e 43 47 bb 31 6c e3 3c 2d f3 0c bc 96 01 15 ba
       -0.0030405293 0.02776155 -0.0086028995 -0.0005684135
0003e0 42 51 bd 3b fa 99 b1 3d ca 36 00 3b 9b c5 14 bc
       0.005777509 0.08671947 0.0019563907 -0.009080316
0003f0 52 3a 83 3d 02 3a 9f 3d 7c eb 37 bd 8c ec 9a bb
       0.06407608 0.07774736 -0.04490231 -0.0047279056
